…
I1025 01:09:49.195431 28197 net.cpp:275] The NetState phase (0) differed from the phase (1) specified by a rule in layer accuracy
I1025 01:09:49.195618 28197 net.cpp:39] Initializing net from parameters: 
name: "CaffeNet"
layers {
  top: "data"
  top: "label"
  name: "data"
  type: DATA
  data_param {
    source: "/home/yindazhang/Documents/caffe/data/ilsvrc12/ilsvrc12_train_lmdb"
    batch_size: 50
    backend: LMDB
  }
  include {
    phase: TRAIN
  }
  transform_param {
    mirror: true
    crop_size: 227
    mean_file: "/home/yindazhang/Documents/caffe/data/ilsvrc12/imagenet_mean.binaryproto"
  }
}
layers {
  bottom: "data"
  top: "conv1"
  name: "conv1"
  type: CONVOLUTION
  blobs_lr: 1
  blobs_lr: 2
  weight_decay: 1
  weight_decay: 0
  convolution_param {
    num_output: 96
    kernel_size: 11
    stride: 4
    weight_filler {
      type: "gaussian"
      std: 0.01
    }
    bias_filler {
      type: "constant"
      value: 0
    }
  }
}
layers {
  bottom: "conv1"
  top: "conv1"
  name: "relu1"
  type: RELU
}
layers {
  bottom: "conv1"
  top: "pool1"
  name: "pool1"
  type: POOLING
  pooling_param {
    pool: MAX
    kernel_size: 3
    stride: 2
  }
}
layers {
  bottom: "pool1"
  top: "norm1"
  name: "norm1"
  type: LRN
  lrn_param {
    local_size: 5
    alpha: 0.0001
    beta: 0.75
  }
}
layers {
  bottom: "norm1"
  top: "conv2"
  name: "conv2"
  type: CONVOLUTION
  blobs_lr: 1
  blobs_lr: 2
  weight_decay: 1
  weight_decay: 0
  convolution_param {
    num_output: 256
    pad: 2
    kernel_size: 5
    group: 2
    weight_filler {
      type: "gaussian"
      std: 0.01
    }
    bias_filler {
      type: "constant"
      value: 1
    }
  }
}
layers {
  bottom: "conv2"
  top: "conv2"
  name: "relu2"
  type: RELU
}
layers {
  bottom: "conv2"
  top: "pool2"
  name: "pool2"
  type: POOLING
  pooling_param {
    pool: MAX
    kernel_size: 3
    stride: 2
  }
}
layers {
  bottom: "pool2"
  top: "norm2"
  name: "norm2"
  type: LRN
  lrn_param {
    local_size: 5
    alpha: 0.0001
    beta: 0.75
  }
}
layers {
  bottom: "norm2"
  top: "conv3"
  name: "conv3"
  type: CONVOLUTION
  blobs_lr: 1
  blobs_lr: 2
  weight_decay: 1
  weight_decay: 0
  convolution_param {
    num_output: 384
    pad: 1
    kernel_size: 3
    weight_filler {
      type: "gaussian"
      std: 0.01
    }
    bias_filler {
      type: "constant"
      value: 0
    }
  }
}
layers {
  bottom: "conv3"
  top: "conv3"
  name: "relu3"
  type: RELU
}
layers {
  bottom: "conv3"
  top: "conv4"
  name: "conv4"
  type: CONVOLUTION
  blobs_lr: 1
  blobs_lr: 2
  weight_decay: 1
  weight_decay: 0
  convolution_param {
    num_output: 384
    pad: 1
    kernel_size: 3
    group: 2
    weight_filler {
      type: "gaussian"
      std: 0.01
    }
    bias_filler {
      type: "constant"
      value: 1
    }
  }
}
layers {
  bottom: "conv4"
  top: "conv4"
  name: "relu4"
  type: RELU
}
layers {
  bottom: "conv4"
  top: "conv5"
  name: "conv5"
  type: CONVOLUTION
  blobs_lr: 1
  blobs_lr: 2
  weight_decay: 1
  weight_decay: 0
  convolution_param {
    num_output: 256
    pad: 1
    kernel_size: 3
    group: 2
    weight_filler {
      type: "gaussian"
      std: 0.01
    }
    bias_filler {
      type: "constant"
      value: 1
    }
  }
}
layers {
  bottom: "conv5"
  top: "conv5"
  name: "relu5"
  type: RELU
}
layers {
  bottom: "conv5"
  top: "pool5"
  name: "pool5"
  type: POOLING
  pooling_param {
    pool: MAX
    kernel_size: 3
    stride: 2
  }
}
layers {
  bottom: "pool5"
  top: "fc6"
  name: "fc6"
  type: INNER_PRODUCT
  blobs_lr: 1
  blobs_lr: 2
  weight_decay: 1
  weight_decay: 0
  inner_product_param {
    num_output: 4096
    weight_filler {
      type: "gaussian"
      std: 0.005
    }
    bias_filler {
      type: "constant"
      value: 1
    }
  }
}
layers {
  bottom: "fc6"
  top: "fc6"
  name: "relu6"
  type: RELU
}
layers {
  bottom: "fc6"
  top: "fc6"
  name: "drop6"
  type: DROPOUT
  dropout_param {
    dropout_ratio: 0.5
  }
}
layers {
  bottom: "fc6"
  top: "fc7"
  name: "fc7"
  type: INNER_PRODUCT
  blobs_lr: 1
  blobs_lr: 2
  weight_decay: 1
  weight_decay: 0
  inner_product_param {
    num_output: 4096
    weight_filler {
      type: "gaussian"
      std: 0.005
    }
    bias_filler {
      type: "constant"
      value: 1
    }
  }
}
layers {
  bottom: "fc7"
  top: "fc7"
  name: "relu7"
  type: RELU
}
layers {
  bottom: "fc7"
  top: "fc7"
  name: "drop7"
  type: DROPOUT
  dropout_param {
    dropout_ratio: 0.5
  }
}
layers {
  bottom: "fc7"
  top: "fc8"
  name: "fc8"
  type: INNER_PRODUCT
  blobs_lr: 1
  blobs_lr: 2
  weight_decay: 1
  weight_decay: 0
  inner_product_param {
    num_output: 1000
    weight_filler {
      type: "gaussian"
      std: 0.01
    }
    bias_filler {
      type: "constant"
      value: 0
    }
  }
}
layers {
  bottom: "fc8"
  bottom: "label"
  top: "loss"
  name: "loss"
  type: SOFTMAX_LOSS
}
state {
  phase: TRAIN
}
I1025 01:09:49.197860 28197 net.cpp:67] Creating Layer data
I1025 01:09:49.197886 28197 net.cpp:356] data -> data
I1025 01:09:49.197914 28197 net.cpp:356] data -> label
I1025 01:09:49.197932 28197 net.cpp:96] Setting up data
I1025 01:09:49.198077 28197 data_layer.cpp:70] Opening lmdb /home/yindazhang/Documents/caffe/data/ilsvrc12/ilsvrc12_train_lmdb
I1025 01:09:49.198312 28197 data_layer.cpp:130] output data size: 50,3,227,227
I1025 01:09:49.211797 28197 base_data_layer.cpp:36] Loading mean file from/home/yindazhang/Documents/caffe/data/ilsvrc12/imagenet_mean.binaryproto
I1025 01:09:49.236105 28197 net.cpp:103] Top shape: 50 3 227 227 (7729350)
I1025 01:09:49.236168 28197 net.cpp:103] Top shape: 50 1 1 1 (50)
I1025 01:09:49.236207 28197 net.cpp:67] Creating Layer conv1
I1025 01:09:49.236222 28197 net.cpp:394] conv1 <- data
I1025 01:09:49.236244 28197 net.cpp:356] conv1 -> conv1
I1025 01:09:49.236269 28197 net.cpp:96] Setting up conv1
I1025 01:09:49.264329 28197 net.cpp:103] Top shape: 50 96 55 55 (14520000)
I1025 01:09:49.264423 28197 net.cpp:67] Creating Layer relu1
I1025 01:09:49.264447 28197 net.cpp:394] relu1 <- conv1
I1025 01:09:49.264464 28197 net.cpp:345] relu1 -> conv1 (in-place)
I1025 01:09:49.264485 28197 net.cpp:96] Setting up relu1
I1025 01:09:49.264504 28197 net.cpp:103] Top shape: 50 96 55 55 (14520000)
I1025 01:09:49.264528 28197 net.cpp:67] Creating Layer pool1
I1025 01:09:49.264544 28197 net.cpp:394] pool1 <- conv1
I1025 01:09:49.264561 28197 net.cpp:356] pool1 -> pool1
I1025 01:09:49.264580 28197 net.cpp:96] Setting up pool1
I1025 01:09:49.264612 28197 net.cpp:103] Top shape: 50 96 27 27 (3499200)
I1025 01:09:49.264634 28197 net.cpp:67] Creating Layer norm1
I1025 01:09:49.264652 28197 net.cpp:394] norm1 <- pool1
I1025 01:09:49.264664 28197 net.cpp:356] norm1 -> norm1
I1025 01:09:49.264686 28197 net.cpp:96] Setting up norm1
I1025 01:09:49.264704 28197 net.cpp:103] Top shape: 50 96 27 27 (3499200)
I1025 01:09:49.264724 28197 net.cpp:67] Creating Layer conv2
I1025 01:09:49.264739 28197 net.cpp:394] conv2 <- norm1
I1025 01:09:49.264756 28197 net.cpp:356] conv2 -> conv2
I1025 01:09:49.264775 28197 net.cpp:96] Setting up conv2
I1025 01:09:49.278877 28197 net.cpp:103] Top shape: 50 256 27 27 (9331200)
I1025 01:09:49.278940 28197 net.cpp:67] Creating Layer relu2
I1025 01:09:49.278955 28197 net.cpp:394] relu2 <- conv2
I1025 01:09:49.278972 28197 net.cpp:345] relu2 -> conv2 (in-place)
I1025 01:09:49.278986 28197 net.cpp:96] Setting up relu2
I1025 01:09:49.279047 28197 net.cpp:103] Top shape: 50 256 27 27 (9331200)
I1025 01:09:49.279062 28197 net.cpp:67] Creating Layer pool2
I1025 01:09:49.279108 28197 net.cpp:394] pool2 <- conv2
I1025 01:09:49.279135 28197 net.cpp:356] pool2 -> pool2
I1025 01:09:49.279160 28197 net.cpp:96] Setting up pool2
I1025 01:09:49.279182 28197 net.cpp:103] Top shape: 50 256 13 13 (2163200)
I1025 01:09:49.279212 28197 net.cpp:67] Creating Layer norm2
I1025 01:09:49.279237 28197 net.cpp:394] norm2 <- pool2
I1025 01:09:49.279256 28197 net.cpp:356] norm2 -> norm2
I1025 01:09:49.279273 28197 net.cpp:96] Setting up norm2
I1025 01:09:49.279289 28197 net.cpp:103] Top shape: 50 256 13 13 (2163200)
I1025 01:09:49.279307 28197 net.cpp:67] Creating Layer conv3
I1025 01:09:49.279322 28197 net.cpp:394] conv3 <- norm2
I1025 01:09:49.279340 28197 net.cpp:356] conv3 -> conv3
I1025 01:09:49.279361 28197 net.cpp:96] Setting up conv3
I1025 01:09:49.320127 28197 net.cpp:103] Top shape: 50 384 13 13 (3244800)
I1025 01:09:49.320191 28197 net.cpp:67] Creating Layer relu3
I1025 01:09:49.320206 28197 net.cpp:394] relu3 <- conv3
I1025 01:09:49.320230 28197 net.cpp:345] relu3 -> conv3 (in-place)
I1025 01:09:49.320245 28197 net.cpp:96] Setting up relu3
I1025 01:09:49.320261 28197 net.cpp:103] Top shape: 50 384 13 13 (3244800)
I1025 01:09:49.320284 28197 net.cpp:67] Creating Layer conv4
I1025 01:09:49.320297 28197 net.cpp:394] conv4 <- conv3
I1025 01:09:49.320314 28197 net.cpp:356] conv4 -> conv4
I1025 01:09:49.320333 28197 net.cpp:96] Setting up conv4
I1025 01:09:49.351266 28197 net.cpp:103] Top shape: 50 384 13 13 (3244800)
I1025 01:09:49.351333 28197 net.cpp:67] Creating Layer relu4
I1025 01:09:49.351407 28197 net.cpp:394] relu4 <- conv4
I1025 01:09:49.351428 28197 net.cpp:345] relu4 -> conv4 (in-place)
I1025 01:09:49.351445 28197 net.cpp:96] Setting up relu4
I1025 01:09:49.351472 28197 net.cpp:103] Top shape: 50 384 13 13 (3244800)
I1025 01:09:49.351500 28197 net.cpp:67] Creating Layer conv5
I1025 01:09:49.351521 28197 net.cpp:394] conv5 <- conv4
I1025 01:09:49.351537 28197 net.cpp:356] conv5 -> conv5
I1025 01:09:49.351564 28197 net.cpp:96] Setting up conv5
I1025 01:09:49.371938 28197 net.cpp:103] Top shape: 50 256 13 13 (2163200)
I1025 01:09:49.372012 28197 net.cpp:67] Creating Layer relu5
I1025 01:09:49.372026 28197 net.cpp:394] relu5 <- conv5
I1025 01:09:49.372045 28197 net.cpp:345] relu5 -> conv5 (in-place)
I1025 01:09:49.372061 28197 net.cpp:96] Setting up relu5
I1025 01:09:49.372139 28197 net.cpp:103] Top shape: 50 256 13 13 (2163200)
I1025 01:09:49.372154 28197 net.cpp:67] Creating Layer pool5
I1025 01:09:49.372164 28197 net.cpp:394] pool5 <- conv5
I1025 01:09:49.372190 28197 net.cpp:356] pool5 -> pool5
I1025 01:09:49.372208 28197 net.cpp:96] Setting up pool5
I1025 01:09:49.372225 28197 net.cpp:103] Top shape: 50 256 6 6 (460800)
I1025 01:09:49.372258 28197 net.cpp:67] Creating Layer fc6
I1025 01:09:49.372282 28197 net.cpp:394] fc6 <- pool5
I1025 01:09:49.372308 28197 net.cpp:356] fc6 -> fc6
I1025 01:09:49.372328 28197 net.cpp:96] Setting up fc6
I1025 01:09:51.091043 28197 net.cpp:103] Top shape: 50 4096 1 1 (204800)
I1025 01:09:51.091109 28197 net.cpp:67] Creating Layer relu6
I1025 01:09:51.091122 28197 net.cpp:394] relu6 <- fc6
I1025 01:09:51.091142 28197 net.cpp:345] relu6 -> fc6 (in-place)
I1025 01:09:51.091159 28197 net.cpp:96] Setting up relu6
I1025 01:09:51.091187 28197 net.cpp:103] Top shape: 50 4096 1 1 (204800)
I1025 01:09:51.091248 28197 net.cpp:67] Creating Layer drop6
I1025 01:09:51.091274 28197 net.cpp:394] drop6 <- fc6
I1025 01:09:51.091298 28197 net.cpp:345] drop6 -> fc6 (in-place)
I1025 01:09:51.091325 28197 net.cpp:96] Setting up drop6
I1025 01:09:51.091354 28197 net.cpp:103] Top shape: 50 4096 1 1 (204800)
I1025 01:09:51.091374 28197 net.cpp:67] Creating Layer fc7
I1025 01:09:51.091388 28197 net.cpp:394] fc7 <- fc6
I1025 01:09:51.091404 28197 net.cpp:356] fc7 -> fc7
I1025 01:09:51.091423 28197 net.cpp:96] Setting up fc7
I1025 01:09:51.858047 28197 net.cpp:103] Top shape: 50 4096 1 1 (204800)
I1025 01:09:51.858098 28197 net.cpp:67] Creating Layer relu7
I1025 01:09:51.858116 28197 net.cpp:394] relu7 <- fc7
I1025 01:09:51.858134 28197 net.cpp:345] relu7 -> fc7 (in-place)
I1025 01:09:51.858185 28197 net.cpp:96] Setting up relu7
I1025 01:09:51.858216 28197 net.cpp:103] Top shape: 50 4096 1 1 (204800)
I1025 01:09:51.858235 28197 net.cpp:67] Creating Layer drop7
I1025 01:09:51.858250 28197 net.cpp:394] drop7 <- fc7
I1025 01:09:51.858268 28197 net.cpp:345] drop7 -> fc7 (in-place)
I1025 01:09:51.858286 28197 net.cpp:96] Setting up drop7
I1025 01:09:51.858300 28197 net.cpp:103] Top shape: 50 4096 1 1 (204800)
I1025 01:09:51.858319 28197 net.cpp:67] Creating Layer fc8
I1025 01:09:51.858332 28197 net.cpp:394] fc8 <- fc7
I1025 01:09:51.858352 28197 net.cpp:356] fc8 -> fc8
I1025 01:09:51.858371 28197 net.cpp:96] Setting up fc8
I1025 01:09:52.044906 28197 net.cpp:103] Top shape: 50 1000 1 1 (50000)
I1025 01:09:52.044958 28197 net.cpp:67] Creating Layer loss
I1025 01:09:52.044970 28197 net.cpp:394] loss <- fc8
I1025 01:09:52.044984 28197 net.cpp:394] loss <- label
I1025 01:09:52.045061 28197 net.cpp:356] loss -> loss
I1025 01:09:52.045078 28197 net.cpp:96] Setting up loss
I1025 01:09:52.045111 28197 net.cpp:103] Top shape: 1 1 1 1 (1)
I1025 01:09:52.045125 28197 net.cpp:109]     with loss weight 1
I1025 01:09:52.045173 28197 net.cpp:170] loss needs backward computation.
I1025 01:09:52.045199 28197 net.cpp:170] fc8 needs backward computation.
I1025 01:09:52.045210 28197 net.cpp:170] drop7 needs backward computation.
I1025 01:09:52.045233 28197 net.cpp:170] relu7 needs backward computation.
I1025 01:09:52.045243 28197 net.cpp:170] fc7 needs backward computation.
…
I1025 01:09:52.046270 28197 net.cpp:275] The NetState phase (1) differed from the phase (0) specified by a rule in layer data
I1025 01:09:52.046473 28197 net.cpp:39] Initializing net from parameters: 
name: "CaffeNet"
layers {
  top: "data"
  top: "label"
  name: "data"
  type: DATA
  data_param {
    source: "/home/yindazhang/Documents/caffe/data/ilsvrc12/ilsvrc12_val_lmdb"
    batch_size: 50
    backend: LMDB
  }
  include {
    phase: TEST
  }
  transform_param {
    mirror: false
    crop_size: 227
    mean_file: "/home/yindazhang/Documents/caffe/data/ilsvrc12/imagenet_mean.binaryproto"
  }
}
layers {
  bottom: "data"
  top: "conv1"
  name: "conv1"
  type: CONVOLUTION
  blobs_lr: 1
  blobs_lr: 2
  weight_decay: 1
  weight_decay: 0
  convolution_param {
    num_output: 96
    kernel_size: 11
    stride: 4
    weight_filler {
      type: "gaussian"
      std: 0.01
    }
    bias_filler {
      type: "constant"
      value: 0
    }
  }
}
layers {
  bottom: "conv1"
  top: "conv1"
  name: "relu1"
  type: RELU
}
layers {
  bottom: "conv1"
  top: "pool1"
  name: "pool1"
  type: POOLING
  pooling_param {
    pool: MAX
    kernel_size: 3
    stride: 2
  }
}
layers {
  bottom: "pool1"
  top: "norm1"
  name: "norm1"
  type: LRN
  lrn_param {
    local_size: 5
    alpha: 0.0001
    beta: 0.75
  }
}
layers {
  bottom: "norm1"
  top: "conv2"
  name: "conv2"
  type: CONVOLUTION
  blobs_lr: 1
  blobs_lr: 2
  weight_decay: 1
  weight_decay: 0
  convolution_param {
    num_output: 256
    pad: 2
    kernel_size: 5
    group: 2
    weight_filler {
      type: "gaussian"
      std: 0.01
    }
    bias_filler {
      type: "constant"
      value: 1
    }
  }
}
layers {
  bottom: "conv2"
  top: "conv2"
  name: "relu2"
  type: RELU
}
layers {
  bottom: "conv2"
  top: "pool2"
  name: "pool2"
  type: POOLING
  pooling_param {
    pool: MAX
    kernel_size: 3
    stride: 2
  }
}
layers {
  bottom: "pool2"
  top: "norm2"
  name: "norm2"
  type: LRN
  lrn_param {
    local_size: 5
    alpha: 0.0001
    beta: 0.75
  }
}
layers {
  bottom: "norm2"
  top: "conv3"
  name: "conv3"
  type: CONVOLUTION
  blobs_lr: 1
  blobs_lr: 2
  weight_decay: 1
  weight_decay: 0
  convolution_param {
    num_output: 384
    pad: 1
    kernel_size: 3
    weight_filler {
      type: "gaussian"
      std: 0.01
    }
    bias_filler {
      type: "constant"
      value: 0
    }
  }
}
layers {
  bottom: "conv3"
  top: "conv3"
  name: "relu3"
  type: RELU
}
layers {
  bottom: "conv3"
  top: "conv4"
  name: "conv4"
  type: CONVOLUTION
  blobs_lr: 1
  blobs_lr: 2
  weight_decay: 1
  weight_decay: 0
  convolution_param {
    num_output: 384
    pad: 1
    kernel_size: 3
    group: 2
    weight_filler {
      type: "gaussian"
      std: 0.01
    }
    bias_filler {
      type: "constant"
      value: 1
    }
  }
}
layers {
  bottom: "conv4"
  top: "conv4"
  name: "relu4"
  type: RELU
}
layers {
  bottom: "conv4"
  top: "conv5"
  name: "conv5"
  type: CONVOLUTION
  blobs_lr: 1
  blobs_lr: 2
  weight_decay: 1
  weight_decay: 0
  convolution_param {
    num_output: 256
    pad: 1
    kernel_size: 3
    group: 2
    weight_filler {
      type: "gaussian"
      std: 0.01
    }
    bias_filler {
      type: "constant"
      value: 1
    }
  }
}
layers {
  bottom: "conv5"
  top: "conv5"
  name: "relu5"
  type: RELU
}
layers {
  bottom: "conv5"
  top: "pool5"
  name: "pool5"
  type: POOLING
  pooling_param {
    pool: MAX
    kernel_size: 3
    stride: 2
  }
}
layers {
  bottom: "pool5"
  top: "fc6"
  name: "fc6"
  type: INNER_PRODUCT
  blobs_lr: 1
  blobs_lr: 2
  weight_decay: 1
  weight_decay: 0
  inner_product_param {
    num_output: 4096
    weight_filler {
      type: "gaussian"
      std: 0.005
    }
    bias_filler {
      type: "constant"
      value: 1
    }
  }
}
layers {
  bottom: "fc6"
  top: "fc6"
  name: "relu6"
  type: RELU
}
layers {
  bottom: "fc6"
  top: "fc6"
  name: "drop6"
  type: DROPOUT
  dropout_param {
    dropout_ratio: 0.5
  }
}
layers {
  bottom: "fc6"
  top: "fc7"
  name: "fc7"
  type: INNER_PRODUCT
  blobs_lr: 1
  blobs_lr: 2
  weight_decay: 1
  weight_decay: 0
  inner_product_param {
    num_output: 4096
    weight_filler {
      type: "gaussian"
      std: 0.005
    }
    bias_filler {
      type: "constant"
      value: 1
    }
  }
}
layers {
  bottom: "fc7"
  top: "fc7"
  name: "relu7"
  type: RELU
}
layers {
  bottom: "fc7"
  top: "fc7"
  name: "drop7"
  type: DROPOUT
  dropout_param {
    dropout_ratio: 0.5
  }
}
layers {
  bottom: "fc7"
  top: "fc8"
  name: "fc8"
  type: INNER_PRODUCT
  blobs_lr: 1
  blobs_lr: 2
  weight_decay: 1
  weight_decay: 0
  inner_product_param {
    num_output: 1000
    weight_filler {
      type: "gaussian"
      std: 0.01
    }
    bias_filler {
      type: "constant"
      value: 0
    }
  }
}
layers {
  bottom: "fc8"
  bottom: "label"
  top: "accuracy"
  name: "accuracy"
  type: ACCURACY
  include {
    phase: TEST
  }
}
layers {
  bottom: "fc8"
  bottom: "label"
  top: "loss"
  name: "loss"
  type: SOFTMAX_LOSS
}
state {
  phase: TEST
}
I1025 01:09:52.048955 28197 net.cpp:67] Creating Layer data
I1025 01:09:52.048972 28197 net.cpp:356] data -> data
I1025 01:09:52.048990 28197 net.cpp:356] data -> label
I1025 01:09:52.049002 28197 net.cpp:96] Setting up data
I1025 01:09:52.049078 28197 data_layer.cpp:70] Opening lmdb /home/yindazhang/Documents/caffe/data/ilsvrc12/ilsvrc12_val_lmdb
I1025 01:09:52.049291 28197 data_layer.cpp:130] output data size: 50,3,227,227
I1025 01:09:52.049307 28197 base_data_layer.cpp:36] Loading mean file from/home/yindazhang/Documents/caffe/data/ilsvrc12/imagenet_mean.binaryproto
I1025 01:09:52.070186 28197 net.cpp:103] Top shape: 50 3 227 227 (7729350)
I1025 01:09:52.070210 28197 net.cpp:103] Top shape: 50 1 1 1 (50)
I1025 01:09:52.070226 28197 net.cpp:67] Creating Layer label_data_1_split
I1025 01:09:52.070238 28197 net.cpp:394] label_data_1_split <- label
I1025 01:09:52.070251 28197 net.cpp:356] label_data_1_split -> label_data_1_split_0
I1025 01:09:52.070268 28197 net.cpp:356] label_data_1_split -> label_data_1_split_1
I1025 01:09:52.070281 28197 net.cpp:96] Setting up label_data_1_split
I1025 01:09:52.070296 28197 net.cpp:103] Top shape: 50 1 1 1 (50)
I1025 01:09:52.070307 28197 net.cpp:103] Top shape: 50 1 1 1 (50)
I1025 01:09:52.070319 28197 net.cpp:67] Creating Layer conv1
I1025 01:09:52.070389 28197 net.cpp:394] conv1 <- data
I1025 01:09:52.070402 28197 net.cpp:356] conv1 -> conv1
I1025 01:09:52.070430 28197 net.cpp:96] Setting up conv1
I1025 01:09:52.072096 28197 net.cpp:103] Top shape: 50 96 55 55 (14520000)
I1025 01:09:52.072124 28197 net.cpp:67] Creating Layer relu1
I1025 01:09:52.072135 28197 net.cpp:394] relu1 <- conv1
I1025 01:09:52.072149 28197 net.cpp:345] relu1 -> conv1 (in-place)
I1025 01:09:52.072160 28197 net.cpp:96] Setting up relu1
I1025 01:09:52.072173 28197 net.cpp:103] Top shape: 50 96 55 55 (14520000)
I1025 01:09:52.072187 28197 net.cpp:67] Creating Layer pool1
I1025 01:09:52.072197 28197 net.cpp:394] pool1 <- conv1
I1025 01:09:52.072209 28197 net.cpp:356] pool1 -> pool1
I1025 01:09:52.072221 28197 net.cpp:96] Setting up pool1
I1025 01:09:52.072237 28197 net.cpp:103] Top shape: 50 96 27 27 (3499200)
I1025 01:09:52.072250 28197 net.cpp:67] Creating Layer norm1
I1025 01:09:52.072260 28197 net.cpp:394] norm1 <- pool1
I1025 01:09:52.072271 28197 net.cpp:356] norm1 -> norm1
I1025 01:09:52.072283 28197 net.cpp:96] Setting up norm1
I1025 01:09:52.072294 28197 net.cpp:103] Top shape: 50 96 27 27 (3499200)
I1025 01:09:52.072306 28197 net.cpp:67] Creating Layer conv2
I1025 01:09:52.072315 28197 net.cpp:394] conv2 <- norm1
I1025 01:09:52.072327 28197 net.cpp:356] conv2 -> conv2
I1025 01:09:52.072340 28197 net.cpp:96] Setting up conv2
I1025 01:09:52.086283 28197 net.cpp:103] Top shape: 50 256 27 27 (9331200)
I1025 01:09:52.086347 28197 net.cpp:67] Creating Layer relu2
I1025 01:09:52.086361 28197 net.cpp:394] relu2 <- conv2
I1025 01:09:52.086380 28197 net.cpp:345] relu2 -> conv2 (in-place)
I1025 01:09:52.086395 28197 net.cpp:96] Setting up relu2
I1025 01:09:52.086410 28197 net.cpp:103] Top shape: 50 256 27 27 (9331200)
I1025 01:09:52.086426 28197 net.cpp:67] Creating Layer pool2
I1025 01:09:52.086443 28197 net.cpp:394] pool2 <- conv2
I1025 01:09:52.086455 28197 net.cpp:356] pool2 -> pool2
I1025 01:09:52.086469 28197 net.cpp:96] Setting up pool2
I1025 01:09:52.086487 28197 net.cpp:103] Top shape: 50 256 13 13 (2163200)
I1025 01:09:52.086501 28197 net.cpp:67] Creating Layer norm2
I1025 01:09:52.086513 28197 net.cpp:394] norm2 <- pool2
I1025 01:09:52.086526 28197 net.cpp:356] norm2 -> norm2
I1025 01:09:52.086539 28197 net.cpp:96] Setting up norm2
I1025 01:09:52.086549 28197 net.cpp:103] Top shape: 50 256 13 13 (2163200)
I1025 01:09:52.086563 28197 net.cpp:67] Creating Layer conv3
I1025 01:09:52.086572 28197 net.cpp:394] conv3 <- norm2
I1025 01:09:52.086587 28197 net.cpp:356] conv3 -> conv3
I1025 01:09:52.086632 28197 net.cpp:96] Setting up conv3
I1025 01:09:52.127310 28197 net.cpp:103] Top shape: 50 384 13 13 (3244800)
I1025 01:09:52.127388 28197 net.cpp:67] Creating Layer relu3
I1025 01:09:52.127400 28197 net.cpp:394] relu3 <- conv3
I1025 01:09:52.127418 28197 net.cpp:345] relu3 -> conv3 (in-place)
I1025 01:09:52.127434 28197 net.cpp:96] Setting up relu3
I1025 01:09:52.127516 28197 net.cpp:103] Top shape: 50 384 13 13 (3244800)
I1025 01:09:52.127538 28197 net.cpp:67] Creating Layer conv4
I1025 01:09:52.127562 28197 net.cpp:394] conv4 <- conv3
I1025 01:09:52.127586 28197 net.cpp:356] conv4 -> conv4
I1025 01:09:52.127612 28197 net.cpp:96] Setting up conv4
I1025 01:09:52.158306 28197 net.cpp:103] Top shape: 50 384 13 13 (3244800)
I1025 01:09:52.158370 28197 net.cpp:67] Creating Layer relu4
I1025 01:09:52.158383 28197 net.cpp:394] relu4 <- conv4
I1025 01:09:52.158401 28197 net.cpp:345] relu4 -> conv4 (in-place)
I1025 01:09:52.158416 28197 net.cpp:96] Setting up relu4
I1025 01:09:52.158506 28197 net.cpp:103] Top shape: 50 384 13 13 (3244800)
I1025 01:09:52.158545 28197 net.cpp:67] Creating Layer conv5
I1025 01:09:52.158568 28197 net.cpp:394] conv5 <- conv4
I1025 01:09:52.158593 28197 net.cpp:356] conv5 -> conv5
I1025 01:09:52.158608 28197 net.cpp:96] Setting up conv5
I1025 01:09:52.179119 28197 net.cpp:103] Top shape: 50 256 13 13 (2163200)
I1025 01:09:52.179184 28197 net.cpp:67] Creating Layer relu5
I1025 01:09:52.179232 28197 net.cpp:394] relu5 <- conv5
I1025 01:09:52.179250 28197 net.cpp:345] relu5 -> conv5 (in-place)
I1025 01:09:52.179265 28197 net.cpp:96] Setting up relu5
I1025 01:09:52.179280 28197 net.cpp:103] Top shape: 50 256 13 13 (2163200)
I1025 01:09:52.179318 28197 net.cpp:67] Creating Layer pool5
I1025 01:09:52.179333 28197 net.cpp:394] pool5 <- conv5
I1025 01:09:52.179358 28197 net.cpp:356] pool5 -> pool5
I1025 01:09:52.179384 28197 net.cpp:96] Setting up pool5
I1025 01:09:52.179414 28197 net.cpp:103] Top shape: 50 256 6 6 (460800)
I1025 01:09:52.179440 28197 net.cpp:67] Creating Layer fc6
I1025 01:09:52.179455 28197 net.cpp:394] fc6 <- pool5
I1025 01:09:52.179476 28197 net.cpp:356] fc6 -> fc6
I1025 01:09:52.179493 28197 net.cpp:96] Setting up fc6
I1025 01:09:53.901304 28197 net.cpp:103] Top shape: 50 4096 1 1 (204800)
I1025 01:09:53.901365 28197 net.cpp:67] Creating Layer relu6
I1025 01:09:53.901379 28197 net.cpp:394] relu6 <- fc6
I1025 01:09:53.901394 28197 net.cpp:345] relu6 -> fc6 (in-place)
I1025 01:09:53.901412 28197 net.cpp:96] Setting up relu6
I1025 01:09:53.901437 28197 net.cpp:103] Top shape: 50 4096 1 1 (204800)
I1025 01:09:53.901463 28197 net.cpp:67] Creating Layer drop6
I1025 01:09:53.901474 28197 net.cpp:394] drop6 <- fc6
I1025 01:09:53.901495 28197 net.cpp:345] drop6 -> fc6 (in-place)
I1025 01:09:53.901512 28197 net.cpp:96] Setting up drop6
I1025 01:09:53.901533 28197 net.cpp:103] Top shape: 50 4096 1 1 (204800)
I1025 01:09:53.901553 28197 net.cpp:67] Creating Layer fc7
I1025 01:09:53.901563 28197 net.cpp:394] fc7 <- fc6
I1025 01:09:53.901582 28197 net.cpp:356] fc7 -> fc7
I1025 01:09:53.901600 28197 net.cpp:96] Setting up fc7
I1025 01:09:54.669638 28197 net.cpp:103] Top shape: 50 4096 1 1 (204800)
I1025 01:09:54.669724 28197 net.cpp:67] Creating Layer relu7
I1025 01:09:54.669780 28197 net.cpp:394] relu7 <- fc7
I1025 01:09:54.669800 28197 net.cpp:345] relu7 -> fc7 (in-place)
I1025 01:09:54.669821 28197 net.cpp:96] Setting up relu7
I1025 01:09:54.669852 28197 net.cpp:103] Top shape: 50 4096 1 1 (204800)
I1025 01:09:54.669867 28197 net.cpp:67] Creating Layer drop7
I1025 01:09:54.669879 28197 net.cpp:394] drop7 <- fc7
I1025 01:09:54.669898 28197 net.cpp:345] drop7 -> fc7 (in-place)
I1025 01:09:54.669916 28197 net.cpp:96] Setting up drop7
I1025 01:09:54.669945 28197 net.cpp:103] Top shape: 50 4096 1 1 (204800)
I1025 01:09:54.669963 28197 net.cpp:67] Creating Layer fc8
I1025 01:09:54.669976 28197 net.cpp:394] fc8 <- fc7
I1025 01:09:54.669996 28197 net.cpp:356] fc8 -> fc8
I1025 01:09:54.670014 28197 net.cpp:96] Setting up fc8
I1025 01:09:54.857375 28197 net.cpp:103] Top shape: 50 1000 1 1 (50000)
I1025 01:09:54.857501 28197 net.cpp:67] Creating Layer fc8_fc8_0_split
I1025 01:09:54.857516 28197 net.cpp:394] fc8_fc8_0_split <- fc8
I1025 01:09:54.857537 28197 net.cpp:356] fc8_fc8_0_split -> fc8_fc8_0_split_0
I1025 01:09:54.857554 28197 net.cpp:356] fc8_fc8_0_split -> fc8_fc8_0_split_1
I1025 01:09:54.857605 28197 net.cpp:96] Setting up fc8_fc8_0_split
I1025 01:09:54.857621 28197 net.cpp:103] Top shape: 50 1000 1 1 (50000)
I1025 01:09:54.857633 28197 net.cpp:103] Top shape: 50 1000 1 1 (50000)
I1025 01:09:54.857650 28197 net.cpp:67] Creating Layer accuracy
I1025 01:09:54.857666 28197 net.cpp:394] accuracy <- fc8_fc8_0_split_0
I1025 01:09:54.857681 28197 net.cpp:394] accuracy <- label_data_1_split_0
I1025 01:09:54.857698 28197 net.cpp:356] accuracy -> accuracy
I1025 01:09:54.857714 28197 net.cpp:96] Setting up accuracy
I1025 01:09:54.857764 28197 net.cpp:103] Top shape: 1 1 1 1 (1)
I1025 01:09:54.857805 28197 net.cpp:67] Creating Layer loss
I1025 01:09:54.857818 28197 net.cpp:394] loss <- fc8_fc8_0_split_1
I1025 01:09:54.857835 28197 net.cpp:394] loss <- label_data_1_split_1
I1025 01:09:54.857851 28197 net.cpp:356] loss -> loss
I1025 01:09:54.857867 28197 net.cpp:96] Setting up loss
I1025 01:09:54.857890 28197 net.cpp:103] Top shape: 1 1 1 1 (1)
I1025 01:09:54.857903 28197 net.cpp:109]     with loss weight 1
I1025 01:09:54.857928 28197 net.cpp:170] loss needs backward computation.
I1025 01:09:54.857944 28197 net.cpp:172] accuracy does not need backward computation.
I1025 01:09:54.857957 28197 net.cpp:170] fc8_fc8_0_split needs backward computation.
I1025 01:09:54.857970 28197 net.cpp:170] fc8 needs backward computation.
I1025 01:09:54.857991 28197 net.cpp:170] drop7 needs backward computation.
…
