…
I1025 14:46:45.987684 21849 net.cpp:275] The NetState phase (0) differed from the phase (1) specified by a rule in layer accuracy
I1025 14:46:45.987900 21849 net.cpp:39] Initializing net from parameters: 
name: "CaffeNet"
layers {
  top: "data"
  top: "label"
  name: "data"
  type: DATA
  data_param {
    source: "/home/yindazhang/Desktop/caffe/data/noise_negative/train_5_20_12_6_2_lmdb"
    batch_size: 100
    backend: LMDB
  }
  include {
    phase: TRAIN
  }
  transform_param {
    mirror: true
    crop_size: 227
    mean_file: "/home/yindazhang/Documents/caffe/data/ilsvrc12/imagenet_mean.binaryproto"
  }
}
layers {
  bottom: "data"
  top: "conv1"
  name: "conv1"
  type: CONVOLUTION
  blobs_lr: 1
  blobs_lr: 2
  weight_decay: 1
  weight_decay: 0
  convolution_param {
    num_output: 96
    kernel_size: 11
    stride: 4
    weight_filler {
      type: "gaussian"
      std: 0.01
    }
    bias_filler {
      type: "constant"
      value: 0
    }
  }
}
layers {
  bottom: "conv1"
  top: "conv1"
  name: "relu1"
  type: RELU
}
layers {
  bottom: "conv1"
  top: "pool1"
  name: "pool1"
  type: POOLING
  pooling_param {
    pool: MAX
    kernel_size: 3
    stride: 2
  }
}
layers {
  bottom: "pool1"
  top: "norm1"
  name: "norm1"
  type: LRN
  lrn_param {
    local_size: 5
    alpha: 0.0001
    beta: 0.75
  }
}
layers {
  bottom: "norm1"
  top: "conv2"
  name: "conv2"
  type: CONVOLUTION
  blobs_lr: 1
  blobs_lr: 2
  weight_decay: 1
  weight_decay: 0
  convolution_param {
    num_output: 256
    pad: 2
    kernel_size: 5
    group: 2
    weight_filler {
      type: "gaussian"
      std: 0.01
    }
    bias_filler {
      type: "constant"
      value: 1
    }
  }
}
layers {
  bottom: "conv2"
  top: "conv2"
  name: "relu2"
  type: RELU
}
layers {
  bottom: "conv2"
  top: "pool2"
  name: "pool2"
  type: POOLING
  pooling_param {
    pool: MAX
    kernel_size: 3
    stride: 2
  }
}
layers {
  bottom: "pool2"
  top: "norm2"
  name: "norm2"
  type: LRN
  lrn_param {
    local_size: 5
    alpha: 0.0001
    beta: 0.75
  }
}
layers {
  bottom: "norm2"
  top: "conv3"
  name: "conv3"
  type: CONVOLUTION
  blobs_lr: 1
  blobs_lr: 2
  weight_decay: 1
  weight_decay: 0
  convolution_param {
    num_output: 384
    pad: 1
    kernel_size: 3
    weight_filler {
      type: "gaussian"
      std: 0.01
    }
    bias_filler {
      type: "constant"
      value: 0
    }
  }
}
layers {
  bottom: "conv3"
  top: "conv3"
  name: "relu3"
  type: RELU
}
layers {
  bottom: "conv3"
  top: "conv4"
  name: "conv4"
  type: CONVOLUTION
  blobs_lr: 1
  blobs_lr: 2
  weight_decay: 1
  weight_decay: 0
  convolution_param {
    num_output: 384
    pad: 1
    kernel_size: 3
    group: 2
    weight_filler {
      type: "gaussian"
      std: 0.01
    }
    bias_filler {
      type: "constant"
      value: 1
    }
  }
}
layers {
  bottom: "conv4"
  top: "conv4"
  name: "relu4"
  type: RELU
}
layers {
  bottom: "conv4"
  top: "conv5"
  name: "conv5"
  type: CONVOLUTION
  blobs_lr: 1
  blobs_lr: 2
  weight_decay: 1
  weight_decay: 0
  convolution_param {
    num_output: 256
    pad: 1
    kernel_size: 3
    group: 2
    weight_filler {
      type: "gaussian"
      std: 0.01
    }
    bias_filler {
      type: "constant"
      value: 1
    }
  }
}
layers {
  bottom: "conv5"
  top: "conv5"
  name: "relu5"
  type: RELU
}
layers {
  bottom: "conv5"
  top: "pool5"
  name: "pool5"
  type: POOLING
  pooling_param {
    pool: MAX
    kernel_size: 3
    stride: 2
  }
}
layers {
  bottom: "pool5"
  top: "fc6"
  name: "fc6"
  type: INNER_PRODUCT
  blobs_lr: 1
  blobs_lr: 2
  weight_decay: 1
  weight_decay: 0
  inner_product_param {
    num_output: 4096
    weight_filler {
      type: "gaussian"
      std: 0.005
    }
    bias_filler {
      type: "constant"
      value: 1
    }
  }
}
layers {
  bottom: "fc6"
  top: "fc6"
  name: "relu6"
  type: RELU
}
layers {
  bottom: "fc6"
  top: "fc6"
  name: "drop6"
  type: DROPOUT
  dropout_param {
    dropout_ratio: 0.5
  }
}
layers {
  bottom: "fc6"
  top: "fc7"
  name: "fc7"
  type: INNER_PRODUCT
  blobs_lr: 1
  blobs_lr: 2
  weight_decay: 1
  weight_decay: 0
  inner_product_param {
    num_output: 4096
    weight_filler {
      type: "gaussian"
      std: 0.005
    }
    bias_filler {
      type: "constant"
      value: 1
    }
  }
}
layers {
  bottom: "fc7"
  top: "fc7"
  name: "relu7"
  type: RELU
}
layers {
  bottom: "fc7"
  top: "fc7"
  name: "drop7"
  type: DROPOUT
  dropout_param {
    dropout_ratio: 0.5
  }
}
layers {
  bottom: "fc7"
  top: "fc8"
  name: "fc8"
  type: INNER_PRODUCT
  blobs_lr: 1
  blobs_lr: 2
  weight_decay: 1
  weight_decay: 0
  inner_product_param {
    num_output: 1000
    weight_filler {
      type: "gaussian"
      std: 0.01
    }
    bias_filler {
      type: "constant"
      value: 0
    }
  }
}
layers {
  bottom: "fc8"
  bottom: "label"
  top: "loss"
  name: "loss"
  type: SOFTMAX_LOSS
}
state {
  phase: TRAIN
}
I1025 14:46:45.990244 21849 net.cpp:67] Creating Layer data
I1025 14:46:45.990265 21849 net.cpp:356] data -> data
I1025 14:46:45.990293 21849 net.cpp:356] data -> label
I1025 14:46:45.990309 21849 net.cpp:96] Setting up data
I1025 14:46:45.990444 21849 data_layer.cpp:70] Opening lmdb /home/yindazhang/Desktop/caffe/data/noise_negative/train_5_20_12_6_2_lmdb
I1025 14:46:45.990659 21849 data_layer.cpp:130] output data size: 100,3,227,227
I1025 14:46:45.990684 21849 base_data_layer.cpp:36] Loading mean file from/home/yindazhang/Documents/caffe/data/ilsvrc12/imagenet_mean.binaryproto
I1025 14:46:46.031599 21849 net.cpp:103] Top shape: 100 3 227 227 (15458700)
I1025 14:46:46.031743 21849 net.cpp:103] Top shape: 100 1 1 1 (100)
I1025 14:46:46.035862 21849 net.cpp:67] Creating Layer conv1
I1025 14:46:46.035913 21849 net.cpp:394] conv1 <- data
I1025 14:46:46.035944 21849 net.cpp:356] conv1 -> conv1
I1025 14:46:46.035985 21849 net.cpp:96] Setting up conv1
I1025 14:46:46.064069 21849 net.cpp:103] Top shape: 100 96 55 55 (29040000)
I1025 14:46:46.064177 21849 net.cpp:67] Creating Layer relu1
I1025 14:46:46.064193 21849 net.cpp:394] relu1 <- conv1
I1025 14:46:46.064213 21849 net.cpp:345] relu1 -> conv1 (in-place)
I1025 14:46:46.064288 21849 net.cpp:96] Setting up relu1
I1025 14:46:46.064312 21849 net.cpp:103] Top shape: 100 96 55 55 (29040000)
I1025 14:46:46.064337 21849 net.cpp:67] Creating Layer pool1
I1025 14:46:46.064352 21849 net.cpp:394] pool1 <- conv1
I1025 14:46:46.064378 21849 net.cpp:356] pool1 -> pool1
I1025 14:46:46.064393 21849 net.cpp:96] Setting up pool1
I1025 14:46:46.064429 21849 net.cpp:103] Top shape: 100 96 27 27 (6998400)
I1025 14:46:46.064450 21849 net.cpp:67] Creating Layer norm1
I1025 14:46:46.064465 21849 net.cpp:394] norm1 <- pool1
I1025 14:46:46.064482 21849 net.cpp:356] norm1 -> norm1
I1025 14:46:46.064502 21849 net.cpp:96] Setting up norm1
I1025 14:46:46.064518 21849 net.cpp:103] Top shape: 100 96 27 27 (6998400)
I1025 14:46:46.064542 21849 net.cpp:67] Creating Layer conv2
I1025 14:46:46.064553 21849 net.cpp:394] conv2 <- norm1
I1025 14:46:46.064571 21849 net.cpp:356] conv2 -> conv2
I1025 14:46:46.064589 21849 net.cpp:96] Setting up conv2
I1025 14:46:46.079190 21849 net.cpp:103] Top shape: 100 256 27 27 (18662400)
I1025 14:46:46.079262 21849 net.cpp:67] Creating Layer relu2
I1025 14:46:46.079277 21849 net.cpp:394] relu2 <- conv2
I1025 14:46:46.079294 21849 net.cpp:345] relu2 -> conv2 (in-place)
I1025 14:46:46.079350 21849 net.cpp:96] Setting up relu2
I1025 14:46:46.079367 21849 net.cpp:103] Top shape: 100 256 27 27 (18662400)
I1025 14:46:46.079442 21849 net.cpp:67] Creating Layer pool2
I1025 14:46:46.079469 21849 net.cpp:394] pool2 <- conv2
I1025 14:46:46.079483 21849 net.cpp:356] pool2 -> pool2
I1025 14:46:46.079510 21849 net.cpp:96] Setting up pool2
I1025 14:46:46.079560 21849 net.cpp:103] Top shape: 100 256 13 13 (4326400)
I1025 14:46:46.079584 21849 net.cpp:67] Creating Layer norm2
I1025 14:46:46.079599 21849 net.cpp:394] norm2 <- pool2
I1025 14:46:46.079617 21849 net.cpp:356] norm2 -> norm2
I1025 14:46:46.079632 21849 net.cpp:96] Setting up norm2
I1025 14:46:46.079646 21849 net.cpp:103] Top shape: 100 256 13 13 (4326400)
I1025 14:46:46.079668 21849 net.cpp:67] Creating Layer conv3
I1025 14:46:46.079682 21849 net.cpp:394] conv3 <- norm2
I1025 14:46:46.079699 21849 net.cpp:356] conv3 -> conv3
I1025 14:46:46.079718 21849 net.cpp:96] Setting up conv3
I1025 14:46:46.134775 21849 net.cpp:103] Top shape: 100 384 13 13 (6489600)
I1025 14:46:46.134888 21849 net.cpp:67] Creating Layer relu3
I1025 14:46:46.134904 21849 net.cpp:394] relu3 <- conv3
I1025 14:46:46.134922 21849 net.cpp:345] relu3 -> conv3 (in-place)
I1025 14:46:46.134937 21849 net.cpp:96] Setting up relu3
I1025 14:46:46.134951 21849 net.cpp:103] Top shape: 100 384 13 13 (6489600)
I1025 14:46:46.134970 21849 net.cpp:67] Creating Layer conv4
I1025 14:46:46.134981 21849 net.cpp:394] conv4 <- conv3
I1025 14:46:46.135000 21849 net.cpp:356] conv4 -> conv4
I1025 14:46:46.135020 21849 net.cpp:96] Setting up conv4
I1025 14:46:46.167193 21849 net.cpp:103] Top shape: 100 384 13 13 (6489600)
I1025 14:46:46.167260 21849 net.cpp:67] Creating Layer relu4
I1025 14:46:46.167274 21849 net.cpp:394] relu4 <- conv4
I1025 14:46:46.167297 21849 net.cpp:345] relu4 -> conv4 (in-place)
I1025 14:46:46.167316 21849 net.cpp:96] Setting up relu4
I1025 14:46:46.167335 21849 net.cpp:103] Top shape: 100 384 13 13 (6489600)
I1025 14:46:46.167354 21849 net.cpp:67] Creating Layer conv5
I1025 14:46:46.167368 21849 net.cpp:394] conv5 <- conv4
I1025 14:46:46.167388 21849 net.cpp:356] conv5 -> conv5
I1025 14:46:46.167409 21849 net.cpp:96] Setting up conv5
I1025 14:46:46.188315 21849 net.cpp:103] Top shape: 100 256 13 13 (4326400)
I1025 14:46:46.188381 21849 net.cpp:67] Creating Layer relu5
I1025 14:46:46.188395 21849 net.cpp:394] relu5 <- conv5
I1025 14:46:46.188410 21849 net.cpp:345] relu5 -> conv5 (in-place)
I1025 14:46:46.188432 21849 net.cpp:96] Setting up relu5
I1025 14:46:46.188448 21849 net.cpp:103] Top shape: 100 256 13 13 (4326400)
I1025 14:46:46.188462 21849 net.cpp:67] Creating Layer pool5
I1025 14:46:46.188475 21849 net.cpp:394] pool5 <- conv5
I1025 14:46:46.188491 21849 net.cpp:356] pool5 -> pool5
I1025 14:46:46.188508 21849 net.cpp:96] Setting up pool5
I1025 14:46:46.188530 21849 net.cpp:103] Top shape: 100 256 6 6 (921600)
I1025 14:46:46.188554 21849 net.cpp:67] Creating Layer fc6
I1025 14:46:46.188565 21849 net.cpp:394] fc6 <- pool5
I1025 14:46:46.188580 21849 net.cpp:356] fc6 -> fc6
I1025 14:46:46.188597 21849 net.cpp:96] Setting up fc6
I1025 14:46:47.909903 21849 net.cpp:103] Top shape: 100 4096 1 1 (409600)
I1025 14:46:47.909983 21849 net.cpp:67] Creating Layer relu6
I1025 14:46:47.910017 21849 net.cpp:394] relu6 <- fc6
I1025 14:46:47.910048 21849 net.cpp:345] relu6 -> fc6 (in-place)
I1025 14:46:47.910064 21849 net.cpp:96] Setting up relu6
I1025 14:46:47.910110 21849 net.cpp:103] Top shape: 100 4096 1 1 (409600)
I1025 14:46:47.910130 21849 net.cpp:67] Creating Layer drop6
I1025 14:46:47.910147 21849 net.cpp:394] drop6 <- fc6
I1025 14:46:47.910163 21849 net.cpp:345] drop6 -> fc6 (in-place)
I1025 14:46:47.910181 21849 net.cpp:96] Setting up drop6
I1025 14:46:47.910204 21849 net.cpp:103] Top shape: 100 4096 1 1 (409600)
I1025 14:46:47.910223 21849 net.cpp:67] Creating Layer fc7
I1025 14:46:47.910236 21849 net.cpp:394] fc7 <- fc6
I1025 14:46:47.910256 21849 net.cpp:356] fc7 -> fc7
I1025 14:46:47.910274 21849 net.cpp:96] Setting up fc7
I1025 14:46:48.674916 21849 net.cpp:103] Top shape: 100 4096 1 1 (409600)
I1025 14:46:48.674988 21849 net.cpp:67] Creating Layer relu7
I1025 14:46:48.675001 21849 net.cpp:394] relu7 <- fc7
I1025 14:46:48.675071 21849 net.cpp:345] relu7 -> fc7 (in-place)
I1025 14:46:48.675089 21849 net.cpp:96] Setting up relu7
I1025 14:46:48.675127 21849 net.cpp:103] Top shape: 100 4096 1 1 (409600)
I1025 14:46:48.675144 21849 net.cpp:67] Creating Layer drop7
I1025 14:46:48.675161 21849 net.cpp:394] drop7 <- fc7
I1025 14:46:48.675180 21849 net.cpp:345] drop7 -> fc7 (in-place)
I1025 14:46:48.675197 21849 net.cpp:96] Setting up drop7
I1025 14:46:48.675215 21849 net.cpp:103] Top shape: 100 4096 1 1 (409600)
I1025 14:46:48.675233 21849 net.cpp:67] Creating Layer fc8
I1025 14:46:48.675243 21849 net.cpp:394] fc8 <- fc7
I1025 14:46:48.675259 21849 net.cpp:356] fc8 -> fc8
I1025 14:46:48.675274 21849 net.cpp:96] Setting up fc8
I1025 14:46:48.863064 21849 net.cpp:103] Top shape: 100 1000 1 1 (100000)
I1025 14:46:48.863142 21849 net.cpp:67] Creating Layer loss
I1025 14:46:48.863154 21849 net.cpp:394] loss <- fc8
I1025 14:46:48.863173 21849 net.cpp:394] loss <- label
I1025 14:46:48.863185 21849 net.cpp:356] loss -> loss
I1025 14:46:48.863201 21849 net.cpp:96] Setting up loss
I1025 14:46:48.863236 21849 net.cpp:103] Top shape: 1 1 1 1 (1)
I1025 14:46:48.863247 21849 net.cpp:109]     with loss weight 1
I1025 14:46:48.863301 21849 net.cpp:170] loss needs backward computation.
I1025 14:46:48.863312 21849 net.cpp:170] fc8 needs backward computation.
I1025 14:46:48.863322 21849 net.cpp:170] drop7 needs backward computation.
I1025 14:46:48.863330 21849 net.cpp:170] relu7 needs backward computation.
I1025 14:46:48.863339 21849 net.cpp:170] fc7 needs backward computation.
…
I1025 14:46:48.864296 21849 net.cpp:275] The NetState phase (1) differed from the phase (0) specified by a rule in layer data
I1025 14:46:48.864508 21849 net.cpp:39] Initializing net from parameters: 
name: "CaffeNet"
layers {
  top: "data"
  top: "label"
  name: "data"
  type: DATA
  data_param {
    source: "/home/yindazhang/Desktop/caffe/data/noise_negative/val_5_20_20_0_0_lmdb"
    batch_size: 100
    backend: LMDB
  }
  include {
    phase: TEST
  }
  transform_param {
    mirror: false
    crop_size: 227
    mean_file: "/home/yindazhang/Documents/caffe/data/ilsvrc12/imagenet_mean.binaryproto"
  }
}
layers {
  bottom: "data"
  top: "conv1"
  name: "conv1"
  type: CONVOLUTION
  blobs_lr: 1
  blobs_lr: 2
  weight_decay: 1
  weight_decay: 0
  convolution_param {
    num_output: 96
    kernel_size: 11
    stride: 4
    weight_filler {
      type: "gaussian"
      std: 0.01
    }
    bias_filler {
      type: "constant"
      value: 0
    }
  }
}
layers {
  bottom: "conv1"
  top: "conv1"
  name: "relu1"
  type: RELU
}
layers {
  bottom: "conv1"
  top: "pool1"
  name: "pool1"
  type: POOLING
  pooling_param {
    pool: MAX
    kernel_size: 3
    stride: 2
  }
}
layers {
  bottom: "pool1"
  top: "norm1"
  name: "norm1"
  type: LRN
  lrn_param {
    local_size: 5
    alpha: 0.0001
    beta: 0.75
  }
}
layers {
  bottom: "norm1"
  top: "conv2"
  name: "conv2"
  type: CONVOLUTION
  blobs_lr: 1
  blobs_lr: 2
  weight_decay: 1
  weight_decay: 0
  convolution_param {
    num_output: 256
    pad: 2
    kernel_size: 5
    group: 2
    weight_filler {
      type: "gaussian"
      std: 0.01
    }
    bias_filler {
      type: "constant"
      value: 1
    }
  }
}
layers {
  bottom: "conv2"
  top: "conv2"
  name: "relu2"
  type: RELU
}
layers {
  bottom: "conv2"
  top: "pool2"
  name: "pool2"
  type: POOLING
  pooling_param {
    pool: MAX
    kernel_size: 3
    stride: 2
  }
}
layers {
  bottom: "pool2"
  top: "norm2"
  name: "norm2"
  type: LRN
  lrn_param {
    local_size: 5
    alpha: 0.0001
    beta: 0.75
  }
}
layers {
  bottom: "norm2"
  top: "conv3"
  name: "conv3"
  type: CONVOLUTION
  blobs_lr: 1
  blobs_lr: 2
  weight_decay: 1
  weight_decay: 0
  convolution_param {
    num_output: 384
    pad: 1
    kernel_size: 3
    weight_filler {
      type: "gaussian"
      std: 0.01
    }
    bias_filler {
      type: "constant"
      value: 0
    }
  }
}
layers {
  bottom: "conv3"
  top: "conv3"
  name: "relu3"
  type: RELU
}
layers {
  bottom: "conv3"
  top: "conv4"
  name: "conv4"
  type: CONVOLUTION
  blobs_lr: 1
  blobs_lr: 2
  weight_decay: 1
  weight_decay: 0
  convolution_param {
    num_output: 384
    pad: 1
    kernel_size: 3
    group: 2
    weight_filler {
      type: "gaussian"
      std: 0.01
    }
    bias_filler {
      type: "constant"
      value: 1
    }
  }
}
layers {
  bottom: "conv4"
  top: "conv4"
  name: "relu4"
  type: RELU
}
layers {
  bottom: "conv4"
  top: "conv5"
  name: "conv5"
  type: CONVOLUTION
  blobs_lr: 1
  blobs_lr: 2
  weight_decay: 1
  weight_decay: 0
  convolution_param {
    num_output: 256
    pad: 1
    kernel_size: 3
    group: 2
    weight_filler {
      type: "gaussian"
      std: 0.01
    }
    bias_filler {
      type: "constant"
      value: 1
    }
  }
}
layers {
  bottom: "conv5"
  top: "conv5"
  name: "relu5"
  type: RELU
}
layers {
  bottom: "conv5"
  top: "pool5"
  name: "pool5"
  type: POOLING
  pooling_param {
    pool: MAX
    kernel_size: 3
    stride: 2
  }
}
layers {
  bottom: "pool5"
  top: "fc6"
  name: "fc6"
  type: INNER_PRODUCT
  blobs_lr: 1
  blobs_lr: 2
  weight_decay: 1
  weight_decay: 0
  inner_product_param {
    num_output: 4096
    weight_filler {
      type: "gaussian"
      std: 0.005
    }
    bias_filler {
      type: "constant"
      value: 1
    }
  }
}
layers {
  bottom: "fc6"
  top: "fc6"
  name: "relu6"
  type: RELU
}
layers {
  bottom: "fc6"
  top: "fc6"
  name: "drop6"
  type: DROPOUT
  dropout_param {
    dropout_ratio: 0.5
  }
}
layers {
  bottom: "fc6"
  top: "fc7"
  name: "fc7"
  type: INNER_PRODUCT
  blobs_lr: 1
  blobs_lr: 2
  weight_decay: 1
  weight_decay: 0
  inner_product_param {
    num_output: 4096
    weight_filler {
      type: "gaussian"
      std: 0.005
    }
    bias_filler {
      type: "constant"
      value: 1
    }
  }
}
layers {
  bottom: "fc7"
  top: "fc7"
  name: "relu7"
  type: RELU
}
layers {
  bottom: "fc7"
  top: "fc7"
  name: "drop7"
  type: DROPOUT
  dropout_param {
    dropout_ratio: 0.5
  }
}
layers {
  bottom: "fc7"
  top: "fc8"
  name: "fc8"
  type: INNER_PRODUCT
  blobs_lr: 1
  blobs_lr: 2
  weight_decay: 1
  weight_decay: 0
  inner_product_param {
    num_output: 1000
    weight_filler {
      type: "gaussian"
      std: 0.01
    }
    bias_filler {
      type: "constant"
      value: 0
    }
  }
}
layers {
  bottom: "fc8"
  bottom: "label"
  top: "accuracy"
  name: "accuracy"
  type: ACCURACY
  include {
    phase: TEST
  }
}
layers {
  bottom: "fc8"
  bottom: "label"
  top: "loss"
  name: "loss"
  type: SOFTMAX_LOSS
}
state {
  phase: TEST
}
I1025 14:46:48.865700 21849 net.cpp:67] Creating Layer data
I1025 14:46:48.865716 21849 net.cpp:356] data -> data
I1025 14:46:48.865733 21849 net.cpp:356] data -> label
I1025 14:46:48.865746 21849 net.cpp:96] Setting up data
I1025 14:46:48.865833 21849 data_layer.cpp:70] Opening lmdb /home/yindazhang/Desktop/caffe/data/noise_negative/val_5_20_20_0_0_lmdb
I1025 14:46:48.866046 21849 data_layer.cpp:130] output data size: 100,3,227,227
I1025 14:46:48.866061 21849 base_data_layer.cpp:36] Loading mean file from/home/yindazhang/Documents/caffe/data/ilsvrc12/imagenet_mean.binaryproto
I1025 14:46:48.905781 21849 net.cpp:103] Top shape: 100 3 227 227 (15458700)
I1025 14:46:48.905836 21849 net.cpp:103] Top shape: 100 1 1 1 (100)
I1025 14:46:48.905864 21849 net.cpp:67] Creating Layer label_data_1_split
I1025 14:46:48.905877 21849 net.cpp:394] label_data_1_split <- label
I1025 14:46:48.905900 21849 net.cpp:356] label_data_1_split -> label_data_1_split_0
I1025 14:46:48.905921 21849 net.cpp:356] label_data_1_split -> label_data_1_split_1
I1025 14:46:48.905941 21849 net.cpp:96] Setting up label_data_1_split
I1025 14:46:48.905966 21849 net.cpp:103] Top shape: 100 1 1 1 (100)
I1025 14:46:48.905979 21849 net.cpp:103] Top shape: 100 1 1 1 (100)
I1025 14:46:48.906002 21849 net.cpp:67] Creating Layer conv1
I1025 14:46:48.906014 21849 net.cpp:394] conv1 <- data
I1025 14:46:48.906031 21849 net.cpp:356] conv1 -> conv1
I1025 14:46:48.906051 21849 net.cpp:96] Setting up conv1
I1025 14:46:48.907743 21849 net.cpp:103] Top shape: 100 96 55 55 (29040000)
I1025 14:46:48.907786 21849 net.cpp:67] Creating Layer relu1
I1025 14:46:48.907801 21849 net.cpp:394] relu1 <- conv1
I1025 14:46:48.907821 21849 net.cpp:345] relu1 -> conv1 (in-place)
I1025 14:46:48.907835 21849 net.cpp:96] Setting up relu1
I1025 14:46:48.907853 21849 net.cpp:103] Top shape: 100 96 55 55 (29040000)
I1025 14:46:48.907874 21849 net.cpp:67] Creating Layer pool1
I1025 14:46:48.907887 21849 net.cpp:394] pool1 <- conv1
I1025 14:46:48.907907 21849 net.cpp:356] pool1 -> pool1
I1025 14:46:48.907924 21849 net.cpp:96] Setting up pool1
I1025 14:46:48.907948 21849 net.cpp:103] Top shape: 100 96 27 27 (6998400)
I1025 14:46:48.907966 21849 net.cpp:67] Creating Layer norm1
I1025 14:46:48.907982 21849 net.cpp:394] norm1 <- pool1
I1025 14:46:48.907999 21849 net.cpp:356] norm1 -> norm1
I1025 14:46:48.908016 21849 net.cpp:96] Setting up norm1
I1025 14:46:48.908032 21849 net.cpp:103] Top shape: 100 96 27 27 (6998400)
I1025 14:46:48.908052 21849 net.cpp:67] Creating Layer conv2
I1025 14:46:48.908067 21849 net.cpp:394] conv2 <- norm1
I1025 14:46:48.908085 21849 net.cpp:356] conv2 -> conv2
I1025 14:46:48.908102 21849 net.cpp:96] Setting up conv2
I1025 14:46:48.922209 21849 net.cpp:103] Top shape: 100 256 27 27 (18662400)
I1025 14:46:48.922288 21849 net.cpp:67] Creating Layer relu2
I1025 14:46:48.922304 21849 net.cpp:394] relu2 <- conv2
I1025 14:46:48.922322 21849 net.cpp:345] relu2 -> conv2 (in-place)
I1025 14:46:48.922361 21849 net.cpp:96] Setting up relu2
I1025 14:46:48.922381 21849 net.cpp:103] Top shape: 100 256 27 27 (18662400)
I1025 14:46:48.922402 21849 net.cpp:67] Creating Layer pool2
I1025 14:46:48.922427 21849 net.cpp:394] pool2 <- conv2
I1025 14:46:48.922456 21849 net.cpp:356] pool2 -> pool2
I1025 14:46:48.922471 21849 net.cpp:96] Setting up pool2
I1025 14:46:48.922488 21849 net.cpp:103] Top shape: 100 256 13 13 (4326400)
I1025 14:46:48.922505 21849 net.cpp:67] Creating Layer norm2
I1025 14:46:48.922515 21849 net.cpp:394] norm2 <- pool2
I1025 14:46:48.922526 21849 net.cpp:356] norm2 -> norm2
I1025 14:46:48.922539 21849 net.cpp:96] Setting up norm2
I1025 14:46:48.922550 21849 net.cpp:103] Top shape: 100 256 13 13 (4326400)
I1025 14:46:48.922566 21849 net.cpp:67] Creating Layer conv3
I1025 14:46:48.922576 21849 net.cpp:394] conv3 <- norm2
I1025 14:46:48.922636 21849 net.cpp:356] conv3 -> conv3
I1025 14:46:48.922649 21849 net.cpp:96] Setting up conv3
I1025 14:46:48.963217 21849 net.cpp:103] Top shape: 100 384 13 13 (6489600)
I1025 14:46:48.963287 21849 net.cpp:67] Creating Layer relu3
I1025 14:46:48.963301 21849 net.cpp:394] relu3 <- conv3
I1025 14:46:48.963322 21849 net.cpp:345] relu3 -> conv3 (in-place)
I1025 14:46:48.963342 21849 net.cpp:96] Setting up relu3
I1025 14:46:48.963361 21849 net.cpp:103] Top shape: 100 384 13 13 (6489600)
I1025 14:46:48.963376 21849 net.cpp:67] Creating Layer conv4
I1025 14:46:48.963387 21849 net.cpp:394] conv4 <- conv3
I1025 14:46:48.963404 21849 net.cpp:356] conv4 -> conv4
I1025 14:46:48.963421 21849 net.cpp:96] Setting up conv4
I1025 14:46:48.993859 21849 net.cpp:103] Top shape: 100 384 13 13 (6489600)
I1025 14:46:48.993929 21849 net.cpp:67] Creating Layer relu4
I1025 14:46:48.993942 21849 net.cpp:394] relu4 <- conv4
I1025 14:46:48.993963 21849 net.cpp:345] relu4 -> conv4 (in-place)
I1025 14:46:48.993978 21849 net.cpp:96] Setting up relu4
I1025 14:46:48.994032 21849 net.cpp:103] Top shape: 100 384 13 13 (6489600)
I1025 14:46:48.994050 21849 net.cpp:67] Creating Layer conv5
I1025 14:46:48.994066 21849 net.cpp:394] conv5 <- conv4
I1025 14:46:48.994084 21849 net.cpp:356] conv5 -> conv5
I1025 14:46:48.994101 21849 net.cpp:96] Setting up conv5
I1025 14:46:49.014582 21849 net.cpp:103] Top shape: 100 256 13 13 (4326400)
I1025 14:46:49.014660 21849 net.cpp:67] Creating Layer relu5
I1025 14:46:49.014674 21849 net.cpp:394] relu5 <- conv5
I1025 14:46:49.014696 21849 net.cpp:345] relu5 -> conv5 (in-place)
I1025 14:46:49.014714 21849 net.cpp:96] Setting up relu5
I1025 14:46:49.014729 21849 net.cpp:103] Top shape: 100 256 13 13 (4326400)
I1025 14:46:49.014750 21849 net.cpp:67] Creating Layer pool5
I1025 14:46:49.014765 21849 net.cpp:394] pool5 <- conv5
I1025 14:46:49.014780 21849 net.cpp:356] pool5 -> pool5
I1025 14:46:49.014798 21849 net.cpp:96] Setting up pool5
I1025 14:46:49.014818 21849 net.cpp:103] Top shape: 100 256 6 6 (921600)
I1025 14:46:49.014834 21849 net.cpp:67] Creating Layer fc6
I1025 14:46:49.014845 21849 net.cpp:394] fc6 <- pool5
I1025 14:46:49.014868 21849 net.cpp:356] fc6 -> fc6
I1025 14:46:49.014885 21849 net.cpp:96] Setting up fc6
I1025 14:46:50.739837 21849 net.cpp:103] Top shape: 100 4096 1 1 (409600)
I1025 14:46:50.739908 21849 net.cpp:67] Creating Layer relu6
I1025 14:46:50.739923 21849 net.cpp:394] relu6 <- fc6
I1025 14:46:50.739943 21849 net.cpp:345] relu6 -> fc6 (in-place)
I1025 14:46:50.739959 21849 net.cpp:96] Setting up relu6
I1025 14:46:50.740056 21849 net.cpp:103] Top shape: 100 4096 1 1 (409600)
I1025 14:46:50.740072 21849 net.cpp:67] Creating Layer drop6
I1025 14:46:50.740094 21849 net.cpp:394] drop6 <- fc6
I1025 14:46:50.740106 21849 net.cpp:345] drop6 -> fc6 (in-place)
I1025 14:46:50.740131 21849 net.cpp:96] Setting up drop6
I1025 14:46:50.740144 21849 net.cpp:103] Top shape: 100 4096 1 1 (409600)
I1025 14:46:50.740172 21849 net.cpp:67] Creating Layer fc7
I1025 14:46:50.740195 21849 net.cpp:394] fc7 <- fc6
I1025 14:46:50.740218 21849 net.cpp:356] fc7 -> fc7
I1025 14:46:50.740236 21849 net.cpp:96] Setting up fc7
I1025 14:46:51.504452 21849 net.cpp:103] Top shape: 100 4096 1 1 (409600)
I1025 14:46:51.504523 21849 net.cpp:67] Creating Layer relu7
I1025 14:46:51.504537 21849 net.cpp:394] relu7 <- fc7
I1025 14:46:51.504556 21849 net.cpp:345] relu7 -> fc7 (in-place)
I1025 14:46:51.504575 21849 net.cpp:96] Setting up relu7
I1025 14:46:51.504611 21849 net.cpp:103] Top shape: 100 4096 1 1 (409600)
I1025 14:46:51.504627 21849 net.cpp:67] Creating Layer drop7
I1025 14:46:51.504644 21849 net.cpp:394] drop7 <- fc7
I1025 14:46:51.504660 21849 net.cpp:345] drop7 -> fc7 (in-place)
I1025 14:46:51.504676 21849 net.cpp:96] Setting up drop7
I1025 14:46:51.504694 21849 net.cpp:103] Top shape: 100 4096 1 1 (409600)
I1025 14:46:51.504715 21849 net.cpp:67] Creating Layer fc8
I1025 14:46:51.504730 21849 net.cpp:394] fc8 <- fc7
I1025 14:46:51.504748 21849 net.cpp:356] fc8 -> fc8
I1025 14:46:51.504773 21849 net.cpp:96] Setting up fc8
I1025 14:46:51.691491 21849 net.cpp:103] Top shape: 100 1000 1 1 (100000)
I1025 14:46:51.691550 21849 net.cpp:67] Creating Layer fc8_fc8_0_split
I1025 14:46:51.691563 21849 net.cpp:394] fc8_fc8_0_split <- fc8
I1025 14:46:51.691581 21849 net.cpp:356] fc8_fc8_0_split -> fc8_fc8_0_split_0
I1025 14:46:51.691598 21849 net.cpp:356] fc8_fc8_0_split -> fc8_fc8_0_split_1
I1025 14:46:51.691612 21849 net.cpp:96] Setting up fc8_fc8_0_split
I1025 14:46:51.691623 21849 net.cpp:103] Top shape: 100 1000 1 1 (100000)
I1025 14:46:51.691633 21849 net.cpp:103] Top shape: 100 1000 1 1 (100000)
I1025 14:46:51.691648 21849 net.cpp:67] Creating Layer accuracy
I1025 14:46:51.691658 21849 net.cpp:394] accuracy <- fc8_fc8_0_split_0
I1025 14:46:51.691669 21849 net.cpp:394] accuracy <- label_data_1_split_0
I1025 14:46:51.691684 21849 net.cpp:356] accuracy -> accuracy
I1025 14:46:51.691697 21849 net.cpp:96] Setting up accuracy
I1025 14:46:51.691715 21849 net.cpp:103] Top shape: 1 1 1 1 (1)
I1025 14:46:51.691735 21849 net.cpp:67] Creating Layer loss
I1025 14:46:51.691745 21849 net.cpp:394] loss <- fc8_fc8_0_split_1
I1025 14:46:51.691756 21849 net.cpp:394] loss <- label_data_1_split_1
I1025 14:46:51.691767 21849 net.cpp:356] loss -> loss
I1025 14:46:51.691779 21849 net.cpp:96] Setting up loss
I1025 14:46:51.691810 21849 net.cpp:103] Top shape: 1 1 1 1 (1)
I1025 14:46:51.691822 21849 net.cpp:109]     with loss weight 1
I1025 14:46:51.691841 21849 net.cpp:170] loss needs backward computation.
I1025 14:46:51.691853 21849 net.cpp:172] accuracy does not need backward computation.
I1025 14:46:51.691861 21849 net.cpp:170] fc8_fc8_0_split needs backward computation.
I1025 14:46:51.691871 21849 net.cpp:170] fc8 needs backward computation.
I1025 14:46:51.691881 21849 net.cpp:170] drop7 needs backward computation.
…
