…
I1025 14:34:54.944700 21263 net.cpp:275] The NetState phase (0) differed from the phase (1) specified by a rule in layer accuracy
I1025 14:34:54.944893 21263 net.cpp:39] Initializing net from parameters: 
name: "CaffeNet"
layers {
  top: "data"
  top: "label"
  name: "data"
  type: DATA
  data_param {
    source: "/home/yindazhang/Desktop/caffe/data/noise_negative/train_5_20_12_6_2_lmdb"
    batch_size: 100
    backend: LMDB
  }
  include {
    phase: TRAIN
  }
  transform_param {
    mirror: true
    crop_size: 227
    mean_file: "/home/yindazhang/Documents/caffe/data/ilsvrc12/imagenet_mean.binaryproto"
  }
}
layers {
  bottom: "data"
  top: "conv1"
  name: "conv1"
  type: CONVOLUTION
  blobs_lr: 1
  blobs_lr: 2
  weight_decay: 1
  weight_decay: 0
  convolution_param {
    num_output: 96
    kernel_size: 11
    stride: 4
    weight_filler {
      type: "gaussian"
      std: 0.01
    }
    bias_filler {
      type: "constant"
      value: 0
    }
  }
}
layers {
  bottom: "conv1"
  top: "conv1"
  name: "relu1"
  type: RELU
}
layers {
  bottom: "conv1"
  top: "pool1"
  name: "pool1"
  type: POOLING
  pooling_param {
    pool: MAX
    kernel_size: 3
    stride: 2
  }
}
layers {
  bottom: "pool1"
  top: "norm1"
  name: "norm1"
  type: LRN
  lrn_param {
    local_size: 5
    alpha: 0.0001
    beta: 0.75
  }
}
layers {
  bottom: "norm1"
  top: "conv2"
  name: "conv2"
  type: CONVOLUTION
  blobs_lr: 1
  blobs_lr: 2
  weight_decay: 1
  weight_decay: 0
  convolution_param {
    num_output: 256
    pad: 2
    kernel_size: 5
    group: 2
    weight_filler {
      type: "gaussian"
      std: 0.01
    }
    bias_filler {
      type: "constant"
      value: 1
    }
  }
}
layers {
  bottom: "conv2"
  top: "conv2"
  name: "relu2"
  type: RELU
}
layers {
  bottom: "conv2"
  top: "pool2"
  name: "pool2"
  type: POOLING
  pooling_param {
    pool: MAX
    kernel_size: 3
    stride: 2
  }
}
layers {
  bottom: "pool2"
  top: "norm2"
  name: "norm2"
  type: LRN
  lrn_param {
    local_size: 5
    alpha: 0.0001
    beta: 0.75
  }
}
layers {
  bottom: "norm2"
  top: "conv3"
  name: "conv3"
  type: CONVOLUTION
  blobs_lr: 1
  blobs_lr: 2
  weight_decay: 1
  weight_decay: 0
  convolution_param {
    num_output: 384
    pad: 1
    kernel_size: 3
    weight_filler {
      type: "gaussian"
      std: 0.01
    }
    bias_filler {
      type: "constant"
      value: 0
    }
  }
}
layers {
  bottom: "conv3"
  top: "conv3"
  name: "relu3"
  type: RELU
}
layers {
  bottom: "conv3"
  top: "conv4"
  name: "conv4"
  type: CONVOLUTION
  blobs_lr: 1
  blobs_lr: 2
  weight_decay: 1
  weight_decay: 0
  convolution_param {
    num_output: 384
    pad: 1
    kernel_size: 3
    group: 2
    weight_filler {
      type: "gaussian"
      std: 0.01
    }
    bias_filler {
      type: "constant"
      value: 1
    }
  }
}
layers {
  bottom: "conv4"
  top: "conv4"
  name: "relu4"
  type: RELU
}
layers {
  bottom: "conv4"
  top: "conv5"
  name: "conv5"
  type: CONVOLUTION
  blobs_lr: 1
  blobs_lr: 2
  weight_decay: 1
  weight_decay: 0
  convolution_param {
    num_output: 256
    pad: 1
    kernel_size: 3
    group: 2
    weight_filler {
      type: "gaussian"
      std: 0.01
    }
    bias_filler {
      type: "constant"
      value: 1
    }
  }
}
layers {
  bottom: "conv5"
  top: "conv5"
  name: "relu5"
  type: RELU
}
layers {
  bottom: "conv5"
  top: "pool5"
  name: "pool5"
  type: POOLING
  pooling_param {
    pool: MAX
    kernel_size: 3
    stride: 2
  }
}
layers {
  bottom: "pool5"
  top: "fc6"
  name: "fc6"
  type: INNER_PRODUCT
  blobs_lr: 1
  blobs_lr: 2
  weight_decay: 1
  weight_decay: 0
  inner_product_param {
    num_output: 4096
    weight_filler {
      type: "gaussian"
      std: 0.005
    }
    bias_filler {
      type: "constant"
      value: 1
    }
  }
}
layers {
  bottom: "fc6"
  top: "fc6"
  name: "relu6"
  type: RELU
}
layers {
  bottom: "fc6"
  top: "fc6"
  name: "drop6"
  type: DROPOUT
  dropout_param {
    dropout_ratio: 0.5
  }
}
layers {
  bottom: "fc6"
  top: "fc7"
  name: "fc7"
  type: INNER_PRODUCT
  blobs_lr: 1
  blobs_lr: 2
  weight_decay: 1
  weight_decay: 0
  inner_product_param {
    num_output: 4096
    weight_filler {
      type: "gaussian"
      std: 0.005
    }
    bias_filler {
      type: "constant"
      value: 1
    }
  }
}
layers {
  bottom: "fc7"
  top: "fc7"
  name: "relu7"
  type: RELU
}
layers {
  bottom: "fc7"
  top: "fc7"
  name: "drop7"
  type: DROPOUT
  dropout_param {
    dropout_ratio: 0.5
  }
}
layers {
  bottom: "fc7"
  top: "fc8"
  name: "fc8"
  type: INNER_PRODUCT
  blobs_lr: 1
  blobs_lr: 2
  weight_decay: 1
  weight_decay: 0
  inner_product_param {
    num_output: 1000
    weight_filler {
      type: "gaussian"
      std: 0.01
    }
    bias_filler {
      type: "constant"
      value: 0
    }
  }
}
layers {
  bottom: "fc8"
  bottom: "label"
  top: "loss"
  name: "loss"
  type: SOFTMAX_LOSS
}
state {
  phase: TRAIN
}
I1025 14:34:54.946663 21263 net.cpp:67] Creating Layer data
I1025 14:34:54.946681 21263 net.cpp:356] data -> data
I1025 14:34:54.946707 21263 net.cpp:356] data -> label
I1025 14:34:54.946723 21263 net.cpp:96] Setting up data
I1025 14:34:54.994884 21263 data_layer.cpp:70] Opening lmdb /home/yindazhang/Desktop/caffe/data/noise_negative/train_5_20_12_6_2_lmdb
I1025 14:34:55.002241 21263 data_layer.cpp:130] output data size: 100,3,227,227
I1025 14:34:55.002297 21263 base_data_layer.cpp:36] Loading mean file from/home/yindazhang/Documents/caffe/data/ilsvrc12/imagenet_mean.binaryproto
I1025 14:34:55.062197 21263 net.cpp:103] Top shape: 100 3 227 227 (15458700)
I1025 14:34:55.062264 21263 net.cpp:103] Top shape: 100 1 1 1 (100)
I1025 14:34:55.062299 21263 net.cpp:67] Creating Layer conv1
I1025 14:34:55.062317 21263 net.cpp:394] conv1 <- data
I1025 14:34:55.062341 21263 net.cpp:356] conv1 -> conv1
I1025 14:34:55.062362 21263 net.cpp:96] Setting up conv1
I1025 14:34:55.091157 21263 net.cpp:103] Top shape: 100 96 55 55 (29040000)
I1025 14:34:55.091256 21263 net.cpp:67] Creating Layer relu1
I1025 14:34:55.091272 21263 net.cpp:394] relu1 <- conv1
I1025 14:34:55.091287 21263 net.cpp:345] relu1 -> conv1 (in-place)
I1025 14:34:55.091305 21263 net.cpp:96] Setting up relu1
I1025 14:34:55.091325 21263 net.cpp:103] Top shape: 100 96 55 55 (29040000)
I1025 14:34:55.091348 21263 net.cpp:67] Creating Layer pool1
I1025 14:34:55.091358 21263 net.cpp:394] pool1 <- conv1
I1025 14:34:55.091403 21263 net.cpp:356] pool1 -> pool1
I1025 14:34:55.091433 21263 net.cpp:96] Setting up pool1
I1025 14:34:55.091475 21263 net.cpp:103] Top shape: 100 96 27 27 (6998400)
I1025 14:34:55.091511 21263 net.cpp:67] Creating Layer norm1
I1025 14:34:55.091527 21263 net.cpp:394] norm1 <- pool1
I1025 14:34:55.091541 21263 net.cpp:356] norm1 -> norm1
I1025 14:34:55.091559 21263 net.cpp:96] Setting up norm1
I1025 14:34:55.091575 21263 net.cpp:103] Top shape: 100 96 27 27 (6998400)
I1025 14:34:55.091598 21263 net.cpp:67] Creating Layer conv2
I1025 14:34:55.091609 21263 net.cpp:394] conv2 <- norm1
I1025 14:34:55.091650 21263 net.cpp:356] conv2 -> conv2
I1025 14:34:55.091665 21263 net.cpp:96] Setting up conv2
I1025 14:34:55.105739 21263 net.cpp:103] Top shape: 100 256 27 27 (18662400)
I1025 14:34:55.105798 21263 net.cpp:67] Creating Layer relu2
I1025 14:34:55.105811 21263 net.cpp:394] relu2 <- conv2
I1025 14:34:55.105859 21263 net.cpp:345] relu2 -> conv2 (in-place)
I1025 14:34:55.105873 21263 net.cpp:96] Setting up relu2
I1025 14:34:55.105911 21263 net.cpp:103] Top shape: 100 256 27 27 (18662400)
I1025 14:34:55.105969 21263 net.cpp:67] Creating Layer pool2
I1025 14:34:55.105995 21263 net.cpp:394] pool2 <- conv2
I1025 14:34:55.106012 21263 net.cpp:356] pool2 -> pool2
I1025 14:34:55.106029 21263 net.cpp:96] Setting up pool2
I1025 14:34:55.106050 21263 net.cpp:103] Top shape: 100 256 13 13 (4326400)
I1025 14:34:55.106070 21263 net.cpp:67] Creating Layer norm2
I1025 14:34:55.106083 21263 net.cpp:394] norm2 <- pool2
I1025 14:34:55.106102 21263 net.cpp:356] norm2 -> norm2
I1025 14:34:55.106118 21263 net.cpp:96] Setting up norm2
I1025 14:34:55.106135 21263 net.cpp:103] Top shape: 100 256 13 13 (4326400)
I1025 14:34:55.106156 21263 net.cpp:67] Creating Layer conv3
I1025 14:34:55.106168 21263 net.cpp:394] conv3 <- norm2
I1025 14:34:55.106187 21263 net.cpp:356] conv3 -> conv3
I1025 14:34:55.106206 21263 net.cpp:96] Setting up conv3
I1025 14:34:55.157238 21263 net.cpp:103] Top shape: 100 384 13 13 (6489600)
I1025 14:34:55.157302 21263 net.cpp:67] Creating Layer relu3
I1025 14:34:55.157316 21263 net.cpp:394] relu3 <- conv3
I1025 14:34:55.157341 21263 net.cpp:345] relu3 -> conv3 (in-place)
I1025 14:34:55.157357 21263 net.cpp:96] Setting up relu3
I1025 14:34:55.157377 21263 net.cpp:103] Top shape: 100 384 13 13 (6489600)
I1025 14:34:55.157398 21263 net.cpp:67] Creating Layer conv4
I1025 14:34:55.157414 21263 net.cpp:394] conv4 <- conv3
I1025 14:34:55.157433 21263 net.cpp:356] conv4 -> conv4
I1025 14:34:55.157451 21263 net.cpp:96] Setting up conv4
I1025 14:34:55.191884 21263 net.cpp:103] Top shape: 100 384 13 13 (6489600)
I1025 14:34:55.191941 21263 net.cpp:67] Creating Layer relu4
I1025 14:34:55.191953 21263 net.cpp:394] relu4 <- conv4
I1025 14:34:55.191972 21263 net.cpp:345] relu4 -> conv4 (in-place)
I1025 14:34:55.191992 21263 net.cpp:96] Setting up relu4
I1025 14:34:55.192005 21263 net.cpp:103] Top shape: 100 384 13 13 (6489600)
I1025 14:34:55.192023 21263 net.cpp:67] Creating Layer conv5
I1025 14:34:55.192034 21263 net.cpp:394] conv5 <- conv4
I1025 14:34:55.192045 21263 net.cpp:356] conv5 -> conv5
I1025 14:34:55.192059 21263 net.cpp:96] Setting up conv5
I1025 14:34:55.212185 21263 net.cpp:103] Top shape: 100 256 13 13 (4326400)
I1025 14:34:55.212290 21263 net.cpp:67] Creating Layer relu5
I1025 14:34:55.212303 21263 net.cpp:394] relu5 <- conv5
I1025 14:34:55.212321 21263 net.cpp:345] relu5 -> conv5 (in-place)
I1025 14:34:55.212337 21263 net.cpp:96] Setting up relu5
I1025 14:34:55.212352 21263 net.cpp:103] Top shape: 100 256 13 13 (4326400)
I1025 14:34:55.212383 21263 net.cpp:67] Creating Layer pool5
I1025 14:34:55.212395 21263 net.cpp:394] pool5 <- conv5
I1025 14:34:55.212419 21263 net.cpp:356] pool5 -> pool5
I1025 14:34:55.212446 21263 net.cpp:96] Setting up pool5
I1025 14:34:55.212474 21263 net.cpp:103] Top shape: 100 256 6 6 (921600)
I1025 14:34:55.212504 21263 net.cpp:67] Creating Layer fc6
I1025 14:34:55.212522 21263 net.cpp:394] fc6 <- pool5
I1025 14:34:55.212540 21263 net.cpp:356] fc6 -> fc6
I1025 14:34:55.212558 21263 net.cpp:96] Setting up fc6
I1025 14:34:56.937391 21263 net.cpp:103] Top shape: 100 4096 1 1 (409600)
I1025 14:34:56.937456 21263 net.cpp:67] Creating Layer relu6
I1025 14:34:56.937506 21263 net.cpp:394] relu6 <- fc6
I1025 14:34:56.937523 21263 net.cpp:345] relu6 -> fc6 (in-place)
I1025 14:34:56.937538 21263 net.cpp:96] Setting up relu6
I1025 14:34:56.937564 21263 net.cpp:103] Top shape: 100 4096 1 1 (409600)
I1025 14:34:56.937578 21263 net.cpp:67] Creating Layer drop6
I1025 14:34:56.937603 21263 net.cpp:394] drop6 <- fc6
I1025 14:34:56.937618 21263 net.cpp:345] drop6 -> fc6 (in-place)
I1025 14:34:56.937664 21263 net.cpp:96] Setting up drop6
I1025 14:34:56.937690 21263 net.cpp:103] Top shape: 100 4096 1 1 (409600)
I1025 14:34:56.937719 21263 net.cpp:67] Creating Layer fc7
I1025 14:34:56.937733 21263 net.cpp:394] fc7 <- fc6
I1025 14:34:56.937752 21263 net.cpp:356] fc7 -> fc7
I1025 14:34:56.937772 21263 net.cpp:96] Setting up fc7
I1025 14:34:57.703840 21263 net.cpp:103] Top shape: 100 4096 1 1 (409600)
I1025 14:34:57.703905 21263 net.cpp:67] Creating Layer relu7
I1025 14:34:57.703919 21263 net.cpp:394] relu7 <- fc7
I1025 14:34:57.703984 21263 net.cpp:345] relu7 -> fc7 (in-place)
I1025 14:34:57.704002 21263 net.cpp:96] Setting up relu7
I1025 14:34:57.704104 21263 net.cpp:103] Top shape: 100 4096 1 1 (409600)
I1025 14:34:57.704123 21263 net.cpp:67] Creating Layer drop7
I1025 14:34:57.704151 21263 net.cpp:394] drop7 <- fc7
I1025 14:34:57.704170 21263 net.cpp:345] drop7 -> fc7 (in-place)
I1025 14:34:57.704186 21263 net.cpp:96] Setting up drop7
I1025 14:34:57.704203 21263 net.cpp:103] Top shape: 100 4096 1 1 (409600)
I1025 14:34:57.704221 21263 net.cpp:67] Creating Layer fc8
I1025 14:34:57.704236 21263 net.cpp:394] fc8 <- fc7
I1025 14:34:57.704248 21263 net.cpp:356] fc8 -> fc8
I1025 14:34:57.704265 21263 net.cpp:96] Setting up fc8
I1025 14:34:57.890861 21263 net.cpp:103] Top shape: 100 1000 1 1 (100000)
I1025 14:34:57.890924 21263 net.cpp:67] Creating Layer loss
I1025 14:34:57.890938 21263 net.cpp:394] loss <- fc8
I1025 14:34:57.891021 21263 net.cpp:394] loss <- label
I1025 14:34:57.891036 21263 net.cpp:356] loss -> loss
I1025 14:34:57.891051 21263 net.cpp:96] Setting up loss
I1025 14:34:57.891082 21263 net.cpp:103] Top shape: 1 1 1 1 (1)
I1025 14:34:57.891091 21263 net.cpp:109]     with loss weight 1
I1025 14:34:57.891142 21263 net.cpp:170] loss needs backward computation.
I1025 14:34:57.891167 21263 net.cpp:170] fc8 needs backward computation.
I1025 14:34:57.891188 21263 net.cpp:170] drop7 needs backward computation.
I1025 14:34:57.891209 21263 net.cpp:170] relu7 needs backward computation.
I1025 14:34:57.891224 21263 net.cpp:170] fc7 needs backward computation.
…
I1025 14:34:57.892261 21263 net.cpp:275] The NetState phase (1) differed from the phase (0) specified by a rule in layer data
I1025 14:34:57.892465 21263 net.cpp:39] Initializing net from parameters: 
name: "CaffeNet"
layers {
  top: "data"
  top: "label"
  name: "data"
  type: DATA
  data_param {
    source: "/home/yindazhang/Desktop/caffe/data/noise_negative/val_5_20_20_0_0_lmdb"
    batch_size: 100
    backend: LMDB
  }
  include {
    phase: TEST
  }
  transform_param {
    mirror: false
    crop_size: 227
    mean_file: "/home/yindazhang/Documents/caffe/data/ilsvrc12/imagenet_mean.binaryproto"
  }
}
layers {
  bottom: "data"
  top: "conv1"
  name: "conv1"
  type: CONVOLUTION
  blobs_lr: 1
  blobs_lr: 2
  weight_decay: 1
  weight_decay: 0
  convolution_param {
    num_output: 96
    kernel_size: 11
    stride: 4
    weight_filler {
      type: "gaussian"
      std: 0.01
    }
    bias_filler {
      type: "constant"
      value: 0
    }
  }
}
layers {
  bottom: "conv1"
  top: "conv1"
  name: "relu1"
  type: RELU
}
layers {
  bottom: "conv1"
  top: "pool1"
  name: "pool1"
  type: POOLING
  pooling_param {
    pool: MAX
    kernel_size: 3
    stride: 2
  }
}
layers {
  bottom: "pool1"
  top: "norm1"
  name: "norm1"
  type: LRN
  lrn_param {
    local_size: 5
    alpha: 0.0001
    beta: 0.75
  }
}
layers {
  bottom: "norm1"
  top: "conv2"
  name: "conv2"
  type: CONVOLUTION
  blobs_lr: 1
  blobs_lr: 2
  weight_decay: 1
  weight_decay: 0
  convolution_param {
    num_output: 256
    pad: 2
    kernel_size: 5
    group: 2
    weight_filler {
      type: "gaussian"
      std: 0.01
    }
    bias_filler {
      type: "constant"
      value: 1
    }
  }
}
layers {
  bottom: "conv2"
  top: "conv2"
  name: "relu2"
  type: RELU
}
layers {
  bottom: "conv2"
  top: "pool2"
  name: "pool2"
  type: POOLING
  pooling_param {
    pool: MAX
    kernel_size: 3
    stride: 2
  }
}
layers {
  bottom: "pool2"
  top: "norm2"
  name: "norm2"
  type: LRN
  lrn_param {
    local_size: 5
    alpha: 0.0001
    beta: 0.75
  }
}
layers {
  bottom: "norm2"
  top: "conv3"
  name: "conv3"
  type: CONVOLUTION
  blobs_lr: 1
  blobs_lr: 2
  weight_decay: 1
  weight_decay: 0
  convolution_param {
    num_output: 384
    pad: 1
    kernel_size: 3
    weight_filler {
      type: "gaussian"
      std: 0.01
    }
    bias_filler {
      type: "constant"
      value: 0
    }
  }
}
layers {
  bottom: "conv3"
  top: "conv3"
  name: "relu3"
  type: RELU
}
layers {
  bottom: "conv3"
  top: "conv4"
  name: "conv4"
  type: CONVOLUTION
  blobs_lr: 1
  blobs_lr: 2
  weight_decay: 1
  weight_decay: 0
  convolution_param {
    num_output: 384
    pad: 1
    kernel_size: 3
    group: 2
    weight_filler {
      type: "gaussian"
      std: 0.01
    }
    bias_filler {
      type: "constant"
      value: 1
    }
  }
}
layers {
  bottom: "conv4"
  top: "conv4"
  name: "relu4"
  type: RELU
}
layers {
  bottom: "conv4"
  top: "conv5"
  name: "conv5"
  type: CONVOLUTION
  blobs_lr: 1
  blobs_lr: 2
  weight_decay: 1
  weight_decay: 0
  convolution_param {
    num_output: 256
    pad: 1
    kernel_size: 3
    group: 2
    weight_filler {
      type: "gaussian"
      std: 0.01
    }
    bias_filler {
      type: "constant"
      value: 1
    }
  }
}
layers {
  bottom: "conv5"
  top: "conv5"
  name: "relu5"
  type: RELU
}
layers {
  bottom: "conv5"
  top: "pool5"
  name: "pool5"
  type: POOLING
  pooling_param {
    pool: MAX
    kernel_size: 3
    stride: 2
  }
}
layers {
  bottom: "pool5"
  top: "fc6"
  name: "fc6"
  type: INNER_PRODUCT
  blobs_lr: 1
  blobs_lr: 2
  weight_decay: 1
  weight_decay: 0
  inner_product_param {
    num_output: 4096
    weight_filler {
      type: "gaussian"
      std: 0.005
    }
    bias_filler {
      type: "constant"
      value: 1
    }
  }
}
layers {
  bottom: "fc6"
  top: "fc6"
  name: "relu6"
  type: RELU
}
layers {
  bottom: "fc6"
  top: "fc6"
  name: "drop6"
  type: DROPOUT
  dropout_param {
    dropout_ratio: 0.5
  }
}
layers {
  bottom: "fc6"
  top: "fc7"
  name: "fc7"
  type: INNER_PRODUCT
  blobs_lr: 1
  blobs_lr: 2
  weight_decay: 1
  weight_decay: 0
  inner_product_param {
    num_output: 4096
    weight_filler {
      type: "gaussian"
      std: 0.005
    }
    bias_filler {
      type: "constant"
      value: 1
    }
  }
}
layers {
  bottom: "fc7"
  top: "fc7"
  name: "relu7"
  type: RELU
}
layers {
  bottom: "fc7"
  top: "fc7"
  name: "drop7"
  type: DROPOUT
  dropout_param {
    dropout_ratio: 0.5
  }
}
layers {
  bottom: "fc7"
  top: "fc8"
  name: "fc8"
  type: INNER_PRODUCT
  blobs_lr: 1
  blobs_lr: 2
  weight_decay: 1
  weight_decay: 0
  inner_product_param {
    num_output: 1000
    weight_filler {
      type: "gaussian"
      std: 0.01
    }
    bias_filler {
      type: "constant"
      value: 0
    }
  }
}
layers {
  bottom: "fc8"
  bottom: "label"
  top: "accuracy"
  name: "accuracy"
  type: ACCURACY
  include {
    phase: TEST
  }
}
layers {
  bottom: "fc8"
  bottom: "label"
  top: "loss"
  name: "loss"
  type: SOFTMAX_LOSS
}
state {
  phase: TEST
}
I1025 14:34:57.894135 21263 net.cpp:67] Creating Layer data
I1025 14:34:57.894152 21263 net.cpp:356] data -> data
I1025 14:34:57.894168 21263 net.cpp:356] data -> label
I1025 14:34:57.894182 21263 net.cpp:96] Setting up data
I1025 14:34:57.894258 21263 data_layer.cpp:70] Opening lmdb /home/yindazhang/Desktop/caffe/data/noise_negative/val_5_20_20_0_0_lmdb
I1025 14:34:57.894461 21263 data_layer.cpp:130] output data size: 100,3,227,227
I1025 14:34:57.894476 21263 base_data_layer.cpp:36] Loading mean file from/home/yindazhang/Documents/caffe/data/ilsvrc12/imagenet_mean.binaryproto
I1025 14:34:57.933835 21263 net.cpp:103] Top shape: 100 3 227 227 (15458700)
I1025 14:34:57.933876 21263 net.cpp:103] Top shape: 100 1 1 1 (100)
I1025 14:34:57.933899 21263 net.cpp:67] Creating Layer label_data_1_split
I1025 14:34:57.933912 21263 net.cpp:394] label_data_1_split <- label
I1025 14:34:57.933929 21263 net.cpp:356] label_data_1_split -> label_data_1_split_0
I1025 14:34:57.933948 21263 net.cpp:356] label_data_1_split -> label_data_1_split_1
I1025 14:34:57.933960 21263 net.cpp:96] Setting up label_data_1_split
I1025 14:34:57.934041 21263 net.cpp:103] Top shape: 100 1 1 1 (100)
I1025 14:34:57.934051 21263 net.cpp:103] Top shape: 100 1 1 1 (100)
I1025 14:34:57.934072 21263 net.cpp:67] Creating Layer conv1
I1025 14:34:57.934089 21263 net.cpp:394] conv1 <- data
I1025 14:34:57.934106 21263 net.cpp:356] conv1 -> conv1
I1025 14:34:57.934121 21263 net.cpp:96] Setting up conv1
I1025 14:34:57.935778 21263 net.cpp:103] Top shape: 100 96 55 55 (29040000)
I1025 14:34:57.935820 21263 net.cpp:67] Creating Layer relu1
I1025 14:34:57.935833 21263 net.cpp:394] relu1 <- conv1
I1025 14:34:57.935847 21263 net.cpp:345] relu1 -> conv1 (in-place)
I1025 14:34:57.935860 21263 net.cpp:96] Setting up relu1
I1025 14:34:57.935873 21263 net.cpp:103] Top shape: 100 96 55 55 (29040000)
I1025 14:34:57.935889 21263 net.cpp:67] Creating Layer pool1
I1025 14:34:57.935899 21263 net.cpp:394] pool1 <- conv1
I1025 14:34:57.935973 21263 net.cpp:356] pool1 -> pool1
I1025 14:34:57.935987 21263 net.cpp:96] Setting up pool1
I1025 14:34:57.936017 21263 net.cpp:103] Top shape: 100 96 27 27 (6998400)
I1025 14:34:57.936043 21263 net.cpp:67] Creating Layer norm1
I1025 14:34:57.936055 21263 net.cpp:394] norm1 <- pool1
I1025 14:34:57.936079 21263 net.cpp:356] norm1 -> norm1
I1025 14:34:57.936105 21263 net.cpp:96] Setting up norm1
I1025 14:34:57.936118 21263 net.cpp:103] Top shape: 100 96 27 27 (6998400)
I1025 14:34:57.936136 21263 net.cpp:67] Creating Layer conv2
I1025 14:34:57.936151 21263 net.cpp:394] conv2 <- norm1
I1025 14:34:57.936167 21263 net.cpp:356] conv2 -> conv2
I1025 14:34:57.936182 21263 net.cpp:96] Setting up conv2
I1025 14:34:57.950053 21263 net.cpp:103] Top shape: 100 256 27 27 (18662400)
I1025 14:34:57.950090 21263 net.cpp:67] Creating Layer relu2
I1025 14:34:57.950101 21263 net.cpp:394] relu2 <- conv2
I1025 14:34:57.950117 21263 net.cpp:345] relu2 -> conv2 (in-place)
I1025 14:34:57.950130 21263 net.cpp:96] Setting up relu2
I1025 14:34:57.950145 21263 net.cpp:103] Top shape: 100 256 27 27 (18662400)
I1025 14:34:57.950158 21263 net.cpp:67] Creating Layer pool2
I1025 14:34:57.950167 21263 net.cpp:394] pool2 <- conv2
I1025 14:34:57.950181 21263 net.cpp:356] pool2 -> pool2
I1025 14:34:57.950193 21263 net.cpp:96] Setting up pool2
I1025 14:34:57.950208 21263 net.cpp:103] Top shape: 100 256 13 13 (4326400)
I1025 14:34:57.950222 21263 net.cpp:67] Creating Layer norm2
I1025 14:34:57.950230 21263 net.cpp:394] norm2 <- pool2
I1025 14:34:57.950248 21263 net.cpp:356] norm2 -> norm2
I1025 14:34:57.950260 21263 net.cpp:96] Setting up norm2
I1025 14:34:57.950271 21263 net.cpp:103] Top shape: 100 256 13 13 (4326400)
I1025 14:34:57.950287 21263 net.cpp:67] Creating Layer conv3
I1025 14:34:57.950297 21263 net.cpp:394] conv3 <- norm2
I1025 14:34:57.950347 21263 net.cpp:356] conv3 -> conv3
I1025 14:34:57.950361 21263 net.cpp:96] Setting up conv3
I1025 14:34:57.991197 21263 net.cpp:103] Top shape: 100 384 13 13 (6489600)
I1025 14:34:57.991273 21263 net.cpp:67] Creating Layer relu3
I1025 14:34:57.991286 21263 net.cpp:394] relu3 <- conv3
I1025 14:34:57.991304 21263 net.cpp:345] relu3 -> conv3 (in-place)
I1025 14:34:57.991319 21263 net.cpp:96] Setting up relu3
I1025 14:34:57.991335 21263 net.cpp:103] Top shape: 100 384 13 13 (6489600)
I1025 14:34:57.991351 21263 net.cpp:67] Creating Layer conv4
I1025 14:34:57.991361 21263 net.cpp:394] conv4 <- conv3
I1025 14:34:57.991384 21263 net.cpp:356] conv4 -> conv4
I1025 14:34:57.991399 21263 net.cpp:96] Setting up conv4
I1025 14:34:58.022263 21263 net.cpp:103] Top shape: 100 384 13 13 (6489600)
I1025 14:34:58.022346 21263 net.cpp:67] Creating Layer relu4
I1025 14:34:58.022359 21263 net.cpp:394] relu4 <- conv4
I1025 14:34:58.022377 21263 net.cpp:345] relu4 -> conv4 (in-place)
I1025 14:34:58.022392 21263 net.cpp:96] Setting up relu4
I1025 14:34:58.022476 21263 net.cpp:103] Top shape: 100 384 13 13 (6489600)
I1025 14:34:58.022495 21263 net.cpp:67] Creating Layer conv5
I1025 14:34:58.022519 21263 net.cpp:394] conv5 <- conv4
I1025 14:34:58.022549 21263 net.cpp:356] conv5 -> conv5
I1025 14:34:58.022577 21263 net.cpp:96] Setting up conv5
I1025 14:34:58.043409 21263 net.cpp:103] Top shape: 100 256 13 13 (4326400)
I1025 14:34:58.043484 21263 net.cpp:67] Creating Layer relu5
I1025 14:34:58.043498 21263 net.cpp:394] relu5 <- conv5
I1025 14:34:58.043512 21263 net.cpp:345] relu5 -> conv5 (in-place)
I1025 14:34:58.043527 21263 net.cpp:96] Setting up relu5
I1025 14:34:58.043542 21263 net.cpp:103] Top shape: 100 256 13 13 (4326400)
I1025 14:34:58.043560 21263 net.cpp:67] Creating Layer pool5
I1025 14:34:58.043570 21263 net.cpp:394] pool5 <- conv5
I1025 14:34:58.043582 21263 net.cpp:356] pool5 -> pool5
I1025 14:34:58.043596 21263 net.cpp:96] Setting up pool5
I1025 14:34:58.043612 21263 net.cpp:103] Top shape: 100 256 6 6 (921600)
I1025 14:34:58.043628 21263 net.cpp:67] Creating Layer fc6
I1025 14:34:58.043638 21263 net.cpp:394] fc6 <- pool5
I1025 14:34:58.043651 21263 net.cpp:356] fc6 -> fc6
I1025 14:34:58.043664 21263 net.cpp:96] Setting up fc6
I1025 14:34:59.763509 21263 net.cpp:103] Top shape: 100 4096 1 1 (409600)
I1025 14:34:59.763567 21263 net.cpp:67] Creating Layer relu6
I1025 14:34:59.763581 21263 net.cpp:394] relu6 <- fc6
I1025 14:34:59.763600 21263 net.cpp:345] relu6 -> fc6 (in-place)
I1025 14:34:59.763617 21263 net.cpp:96] Setting up relu6
I1025 14:34:59.763640 21263 net.cpp:103] Top shape: 100 4096 1 1 (409600)
I1025 14:34:59.763664 21263 net.cpp:67] Creating Layer drop6
I1025 14:34:59.763676 21263 net.cpp:394] drop6 <- fc6
I1025 14:34:59.763692 21263 net.cpp:345] drop6 -> fc6 (in-place)
I1025 14:34:59.763711 21263 net.cpp:96] Setting up drop6
I1025 14:34:59.763727 21263 net.cpp:103] Top shape: 100 4096 1 1 (409600)
I1025 14:34:59.763746 21263 net.cpp:67] Creating Layer fc7
I1025 14:34:59.763761 21263 net.cpp:394] fc7 <- fc6
I1025 14:34:59.763777 21263 net.cpp:356] fc7 -> fc7
I1025 14:34:59.763797 21263 net.cpp:96] Setting up fc7
I1025 14:35:00.528656 21263 net.cpp:103] Top shape: 100 4096 1 1 (409600)
I1025 14:35:00.528717 21263 net.cpp:67] Creating Layer relu7
I1025 14:35:00.528733 21263 net.cpp:394] relu7 <- fc7
I1025 14:35:00.528750 21263 net.cpp:345] relu7 -> fc7 (in-place)
I1025 14:35:00.528766 21263 net.cpp:96] Setting up relu7
I1025 14:35:00.528790 21263 net.cpp:103] Top shape: 100 4096 1 1 (409600)
I1025 14:35:00.528805 21263 net.cpp:67] Creating Layer drop7
I1025 14:35:00.528820 21263 net.cpp:394] drop7 <- fc7
I1025 14:35:00.528832 21263 net.cpp:345] drop7 -> fc7 (in-place)
I1025 14:35:00.528847 21263 net.cpp:96] Setting up drop7
I1025 14:35:00.528859 21263 net.cpp:103] Top shape: 100 4096 1 1 (409600)
I1025 14:35:00.528877 21263 net.cpp:67] Creating Layer fc8
I1025 14:35:00.528892 21263 net.cpp:394] fc8 <- fc7
I1025 14:35:00.528911 21263 net.cpp:356] fc8 -> fc8
I1025 14:35:00.528934 21263 net.cpp:96] Setting up fc8
I1025 14:35:00.716960 21263 net.cpp:103] Top shape: 100 1000 1 1 (100000)
I1025 14:35:00.717016 21263 net.cpp:67] Creating Layer fc8_fc8_0_split
I1025 14:35:00.717031 21263 net.cpp:394] fc8_fc8_0_split <- fc8
I1025 14:35:00.717048 21263 net.cpp:356] fc8_fc8_0_split -> fc8_fc8_0_split_0
I1025 14:35:00.717066 21263 net.cpp:356] fc8_fc8_0_split -> fc8_fc8_0_split_1
I1025 14:35:00.717115 21263 net.cpp:96] Setting up fc8_fc8_0_split
I1025 14:35:00.717129 21263 net.cpp:103] Top shape: 100 1000 1 1 (100000)
I1025 14:35:00.717140 21263 net.cpp:103] Top shape: 100 1000 1 1 (100000)
I1025 14:35:00.717169 21263 net.cpp:67] Creating Layer accuracy
I1025 14:35:00.717191 21263 net.cpp:394] accuracy <- fc8_fc8_0_split_0
I1025 14:35:00.717214 21263 net.cpp:394] accuracy <- label_data_1_split_0
I1025 14:35:00.717244 21263 net.cpp:356] accuracy -> accuracy
I1025 14:35:00.717273 21263 net.cpp:96] Setting up accuracy
I1025 14:35:00.717308 21263 net.cpp:103] Top shape: 1 1 1 1 (1)
I1025 14:35:00.717325 21263 net.cpp:67] Creating Layer loss
I1025 14:35:00.717341 21263 net.cpp:394] loss <- fc8_fc8_0_split_1
I1025 14:35:00.717358 21263 net.cpp:394] loss <- label_data_1_split_1
I1025 14:35:00.717386 21263 net.cpp:356] loss -> loss
I1025 14:35:00.717401 21263 net.cpp:96] Setting up loss
I1025 14:35:00.717425 21263 net.cpp:103] Top shape: 1 1 1 1 (1)
I1025 14:35:00.717440 21263 net.cpp:109]     with loss weight 1
I1025 14:35:00.717463 21263 net.cpp:170] loss needs backward computation.
I1025 14:35:00.717478 21263 net.cpp:172] accuracy does not need backward computation.
I1025 14:35:00.717492 21263 net.cpp:170] fc8_fc8_0_split needs backward computation.
I1025 14:35:00.717509 21263 net.cpp:170] fc8 needs backward computation.
I1025 14:35:00.717520 21263 net.cpp:170] drop7 needs backward computation.
…
