…
I1025 15:37:55.440701 31299 net.cpp:275] The NetState phase (0) differed from the phase (1) specified by a rule in layer accuracy
I1025 15:37:55.440891 31299 net.cpp:39] Initializing net from parameters: 
name: "CaffeNet"
layers {
  top: "data"
  top: "label"
  name: "data"
  type: DATA
  data_param {
    source: "/home/yindazhang/Desktop/caffe/data/noise_negative/train_5_20_12_6_2_lmdb"
    batch_size: 100
    backend: LMDB
  }
  include {
    phase: TRAIN
  }
  transform_param {
    mirror: true
    crop_size: 227
    mean_file: "/home/yindazhang/Documents/caffe_debug/data/ilsvrc12/imagenet_mean.binaryproto"
  }
}
layers {
  bottom: "data"
  top: "conv1"
  name: "conv1"
  type: CONVOLUTION
  blobs_lr: 1
  blobs_lr: 2
  weight_decay: 1
  weight_decay: 0
  convolution_param {
    num_output: 96
    kernel_size: 11
    stride: 4
    weight_filler {
      type: "gaussian"
      std: 0.01
    }
    bias_filler {
      type: "constant"
      value: 0
    }
  }
}
layers {
  bottom: "conv1"
  top: "conv1"
  name: "relu1"
  type: RELU
}
layers {
  bottom: "conv1"
  top: "pool1"
  name: "pool1"
  type: POOLING
  pooling_param {
    pool: MAX
    kernel_size: 3
    stride: 2
  }
}
layers {
  bottom: "pool1"
  top: "norm1"
  name: "norm1"
  type: LRN
  lrn_param {
    local_size: 5
    alpha: 0.0001
    beta: 0.75
  }
}
layers {
  bottom: "norm1"
  top: "conv2"
  name: "conv2"
  type: CONVOLUTION
  blobs_lr: 1
  blobs_lr: 2
  weight_decay: 1
  weight_decay: 0
  convolution_param {
    num_output: 256
    pad: 2
    kernel_size: 5
    group: 2
    weight_filler {
      type: "gaussian"
      std: 0.01
    }
    bias_filler {
      type: "constant"
      value: 1
    }
  }
}
layers {
  bottom: "conv2"
  top: "conv2"
  name: "relu2"
  type: RELU
}
layers {
  bottom: "conv2"
  top: "pool2"
  name: "pool2"
  type: POOLING
  pooling_param {
    pool: MAX
    kernel_size: 3
    stride: 2
  }
}
layers {
  bottom: "pool2"
  top: "norm2"
  name: "norm2"
  type: LRN
  lrn_param {
    local_size: 5
    alpha: 0.0001
    beta: 0.75
  }
}
layers {
  bottom: "norm2"
  top: "conv3"
  name: "conv3"
  type: CONVOLUTION
  blobs_lr: 1
  blobs_lr: 2
  weight_decay: 1
  weight_decay: 0
  convolution_param {
    num_output: 384
    pad: 1
    kernel_size: 3
    weight_filler {
      type: "gaussian"
      std: 0.01
    }
    bias_filler {
      type: "constant"
      value: 0
    }
  }
}
layers {
  bottom: "conv3"
  top: "conv3"
  name: "relu3"
  type: RELU
}
layers {
  bottom: "conv3"
  top: "conv4"
  name: "conv4"
  type: CONVOLUTION
  blobs_lr: 1
  blobs_lr: 2
  weight_decay: 1
  weight_decay: 0
  convolution_param {
    num_output: 384
    pad: 1
    kernel_size: 3
    group: 2
    weight_filler {
      type: "gaussian"
      std: 0.01
    }
    bias_filler {
      type: "constant"
      value: 1
    }
  }
}
layers {
  bottom: "conv4"
  top: "conv4"
  name: "relu4"
  type: RELU
}
layers {
  bottom: "conv4"
  top: "conv5"
  name: "conv5"
  type: CONVOLUTION
  blobs_lr: 1
  blobs_lr: 2
  weight_decay: 1
  weight_decay: 0
  convolution_param {
    num_output: 256
    pad: 1
    kernel_size: 3
    group: 2
    weight_filler {
      type: "gaussian"
      std: 0.01
    }
    bias_filler {
      type: "constant"
      value: 1
    }
  }
}
layers {
  bottom: "conv5"
  top: "conv5"
  name: "relu5"
  type: RELU
}
layers {
  bottom: "conv5"
  top: "pool5"
  name: "pool5"
  type: POOLING
  pooling_param {
    pool: MAX
    kernel_size: 3
    stride: 2
  }
}
layers {
  bottom: "pool5"
  top: "fc6"
  name: "fc6"
  type: INNER_PRODUCT
  blobs_lr: 1
  blobs_lr: 2
  weight_decay: 1
  weight_decay: 0
  inner_product_param {
    num_output: 4096
    weight_filler {
      type: "gaussian"
      std: 0.005
    }
    bias_filler {
      type: "constant"
      value: 1
    }
  }
}
layers {
  bottom: "fc6"
  top: "fc6"
  name: "relu6"
  type: RELU
}
layers {
  bottom: "fc6"
  top: "fc6"
  name: "drop6"
  type: DROPOUT
  dropout_param {
    dropout_ratio: 0.5
  }
}
layers {
  bottom: "fc6"
  top: "fc7"
  name: "fc7"
  type: INNER_PRODUCT
  blobs_lr: 1
  blobs_lr: 2
  weight_decay: 1
  weight_decay: 0
  inner_product_param {
    num_output: 4096
    weight_filler {
      type: "gaussian"
      std: 0.005
    }
    bias_filler {
      type: "constant"
      value: 1
    }
  }
}
layers {
  bottom: "fc7"
  top: "fc7"
  name: "relu7"
  type: RELU
}
layers {
  bottom: "fc7"
  top: "fc7"
  name: "drop7"
  type: DROPOUT
  dropout_param {
    dropout_ratio: 0.5
  }
}
layers {
  bottom: "fc7"
  top: "fc8"
  name: "fc8"
  type: INNER_PRODUCT
  blobs_lr: 1
  blobs_lr: 2
  weight_decay: 1
  weight_decay: 0
  inner_product_param {
    num_output: 1000
    weight_filler {
      type: "gaussian"
      std: 0.01
    }
    bias_filler {
      type: "constant"
      value: 0
    }
  }
}
layers {
  bottom: "fc8"
  bottom: "label"
  top: "loss"
  name: "loss"
  type: SOFTMAX_LOSS
}
state {
  phase: TRAIN
}
I1025 15:37:55.443284 31299 net.cpp:67] Creating Layer data
I1025 15:37:55.443303 31299 net.cpp:356] data -> data
I1025 15:37:55.443330 31299 net.cpp:356] data -> label
I1025 15:37:55.443346 31299 net.cpp:96] Setting up data
I1025 15:37:55.443471 31299 data_layer.cpp:70] Opening lmdb /home/yindazhang/Desktop/caffe/data/noise_negative/train_5_20_12_6_2_lmdb
I1025 15:37:55.443686 31299 data_layer.cpp:130] output data size: 100,3,227,227
I1025 15:37:55.443707 31299 base_data_layer.cpp:36] Loading mean file from/home/yindazhang/Documents/caffe_debug/data/ilsvrc12/imagenet_mean.binaryproto
I1025 15:37:55.487880 31299 net.cpp:103] Top shape: 100 3 227 227 (15458700)
I1025 15:37:55.487931 31299 net.cpp:103] Top shape: 100 1 1 1 (100)
I1025 15:37:55.487993 31299 net.cpp:67] Creating Layer conv1
I1025 15:37:55.488013 31299 net.cpp:394] conv1 <- data
I1025 15:37:55.488037 31299 net.cpp:356] conv1 -> conv1
I1025 15:37:55.488061 31299 net.cpp:96] Setting up conv1
I1025 15:37:55.521131 31299 net.cpp:103] Top shape: 100 96 55 55 (29040000)
I1025 15:37:55.521229 31299 net.cpp:67] Creating Layer relu1
I1025 15:37:55.521246 31299 net.cpp:394] relu1 <- conv1
I1025 15:37:55.521265 31299 net.cpp:345] relu1 -> conv1 (in-place)
I1025 15:37:55.521283 31299 net.cpp:96] Setting up relu1
I1025 15:37:55.521324 31299 net.cpp:103] Top shape: 100 96 55 55 (29040000)
I1025 15:37:55.521353 31299 net.cpp:67] Creating Layer pool1
I1025 15:37:55.521374 31299 net.cpp:394] pool1 <- conv1
I1025 15:37:55.521399 31299 net.cpp:356] pool1 -> pool1
I1025 15:37:55.521414 31299 net.cpp:96] Setting up pool1
I1025 15:37:55.521445 31299 net.cpp:103] Top shape: 100 96 27 27 (6998400)
I1025 15:37:55.521466 31299 net.cpp:67] Creating Layer norm1
I1025 15:37:55.521491 31299 net.cpp:394] norm1 <- pool1
I1025 15:37:55.521507 31299 net.cpp:356] norm1 -> norm1
I1025 15:37:55.521528 31299 net.cpp:96] Setting up norm1
I1025 15:37:55.521548 31299 net.cpp:103] Top shape: 100 96 27 27 (6998400)
I1025 15:37:55.521564 31299 net.cpp:67] Creating Layer conv2
I1025 15:37:55.521577 31299 net.cpp:394] conv2 <- norm1
I1025 15:37:55.521600 31299 net.cpp:356] conv2 -> conv2
I1025 15:37:55.521620 31299 net.cpp:96] Setting up conv2
I1025 15:37:55.536303 31299 net.cpp:103] Top shape: 100 256 27 27 (18662400)
I1025 15:37:55.536373 31299 net.cpp:67] Creating Layer relu2
I1025 15:37:55.536388 31299 net.cpp:394] relu2 <- conv2
I1025 15:37:55.536442 31299 net.cpp:345] relu2 -> conv2 (in-place)
I1025 15:37:55.536458 31299 net.cpp:96] Setting up relu2
I1025 15:37:55.536474 31299 net.cpp:103] Top shape: 100 256 27 27 (18662400)
I1025 15:37:55.536530 31299 net.cpp:67] Creating Layer pool2
I1025 15:37:55.536557 31299 net.cpp:394] pool2 <- conv2
I1025 15:37:55.536571 31299 net.cpp:356] pool2 -> pool2
I1025 15:37:55.536586 31299 net.cpp:96] Setting up pool2
I1025 15:37:55.536620 31299 net.cpp:103] Top shape: 100 256 13 13 (4326400)
I1025 15:37:55.536645 31299 net.cpp:67] Creating Layer norm2
I1025 15:37:55.536659 31299 net.cpp:394] norm2 <- pool2
I1025 15:37:55.536679 31299 net.cpp:356] norm2 -> norm2
I1025 15:37:55.536695 31299 net.cpp:96] Setting up norm2
I1025 15:37:55.536710 31299 net.cpp:103] Top shape: 100 256 13 13 (4326400)
I1025 15:37:55.536731 31299 net.cpp:67] Creating Layer conv3
I1025 15:37:55.536744 31299 net.cpp:394] conv3 <- norm2
I1025 15:37:55.536766 31299 net.cpp:356] conv3 -> conv3
I1025 15:37:55.536784 31299 net.cpp:96] Setting up conv3
I1025 15:37:55.578347 31299 net.cpp:103] Top shape: 100 384 13 13 (6489600)
I1025 15:37:55.578423 31299 net.cpp:67] Creating Layer relu3
I1025 15:37:55.578465 31299 net.cpp:394] relu3 <- conv3
I1025 15:37:55.578485 31299 net.cpp:345] relu3 -> conv3 (in-place)
I1025 15:37:55.578501 31299 net.cpp:96] Setting up relu3
I1025 15:37:55.578516 31299 net.cpp:103] Top shape: 100 384 13 13 (6489600)
I1025 15:37:55.578544 31299 net.cpp:67] Creating Layer conv4
I1025 15:37:55.578555 31299 net.cpp:394] conv4 <- conv3
I1025 15:37:55.578583 31299 net.cpp:356] conv4 -> conv4
I1025 15:37:55.578608 31299 net.cpp:96] Setting up conv4
I1025 15:37:55.609866 31299 net.cpp:103] Top shape: 100 384 13 13 (6489600)
I1025 15:37:55.609931 31299 net.cpp:67] Creating Layer relu4
I1025 15:37:55.609951 31299 net.cpp:394] relu4 <- conv4
I1025 15:37:55.609968 31299 net.cpp:345] relu4 -> conv4 (in-place)
I1025 15:37:55.609984 31299 net.cpp:96] Setting up relu4
I1025 15:37:55.609999 31299 net.cpp:103] Top shape: 100 384 13 13 (6489600)
I1025 15:37:55.610018 31299 net.cpp:67] Creating Layer conv5
I1025 15:37:55.610031 31299 net.cpp:394] conv5 <- conv4
I1025 15:37:55.610049 31299 net.cpp:356] conv5 -> conv5
I1025 15:37:55.610069 31299 net.cpp:96] Setting up conv5
I1025 15:37:55.630645 31299 net.cpp:103] Top shape: 100 256 13 13 (4326400)
I1025 15:37:55.630720 31299 net.cpp:67] Creating Layer relu5
I1025 15:37:55.630734 31299 net.cpp:394] relu5 <- conv5
I1025 15:37:55.630750 31299 net.cpp:345] relu5 -> conv5 (in-place)
I1025 15:37:55.630765 31299 net.cpp:96] Setting up relu5
I1025 15:37:55.630780 31299 net.cpp:103] Top shape: 100 256 13 13 (4326400)
I1025 15:37:55.630848 31299 net.cpp:67] Creating Layer pool5
I1025 15:37:55.630869 31299 net.cpp:394] pool5 <- conv5
I1025 15:37:55.630897 31299 net.cpp:356] pool5 -> pool5
I1025 15:37:55.630913 31299 net.cpp:96] Setting up pool5
I1025 15:37:55.630944 31299 net.cpp:103] Top shape: 100 256 6 6 (921600)
I1025 15:37:55.630974 31299 net.cpp:67] Creating Layer fc6
I1025 15:37:55.630988 31299 net.cpp:394] fc6 <- pool5
I1025 15:37:55.631008 31299 net.cpp:356] fc6 -> fc6
I1025 15:37:55.631026 31299 net.cpp:96] Setting up fc6
I1025 15:37:57.376168 31299 net.cpp:103] Top shape: 100 4096 1 1 (409600)
I1025 15:37:57.376227 31299 net.cpp:67] Creating Layer relu6
I1025 15:37:57.376241 31299 net.cpp:394] relu6 <- fc6
I1025 15:37:57.376260 31299 net.cpp:345] relu6 -> fc6 (in-place)
I1025 15:37:57.376335 31299 net.cpp:96] Setting up relu6
I1025 15:37:57.376365 31299 net.cpp:103] Top shape: 100 4096 1 1 (409600)
I1025 15:37:57.376380 31299 net.cpp:67] Creating Layer drop6
I1025 15:37:57.376391 31299 net.cpp:394] drop6 <- fc6
I1025 15:37:57.376417 31299 net.cpp:345] drop6 -> fc6 (in-place)
I1025 15:37:57.376441 31299 net.cpp:96] Setting up drop6
I1025 15:37:57.376474 31299 net.cpp:103] Top shape: 100 4096 1 1 (409600)
I1025 15:37:57.376505 31299 net.cpp:67] Creating Layer fc7
I1025 15:37:57.376520 31299 net.cpp:394] fc7 <- fc6
I1025 15:37:57.376535 31299 net.cpp:356] fc7 -> fc7
I1025 15:37:57.376554 31299 net.cpp:96] Setting up fc7
I1025 15:37:58.154433 31299 net.cpp:103] Top shape: 100 4096 1 1 (409600)
I1025 15:37:58.154490 31299 net.cpp:67] Creating Layer relu7
I1025 15:37:58.154552 31299 net.cpp:394] relu7 <- fc7
I1025 15:37:58.154605 31299 net.cpp:345] relu7 -> fc7 (in-place)
I1025 15:37:58.154629 31299 net.cpp:96] Setting up relu7
I1025 15:37:58.154664 31299 net.cpp:103] Top shape: 100 4096 1 1 (409600)
I1025 15:37:58.154682 31299 net.cpp:67] Creating Layer drop7
I1025 15:37:58.154700 31299 net.cpp:394] drop7 <- fc7
I1025 15:37:58.154719 31299 net.cpp:345] drop7 -> fc7 (in-place)
I1025 15:37:58.154731 31299 net.cpp:96] Setting up drop7
I1025 15:37:58.154745 31299 net.cpp:103] Top shape: 100 4096 1 1 (409600)
I1025 15:37:58.154758 31299 net.cpp:67] Creating Layer fc8
I1025 15:37:58.154769 31299 net.cpp:394] fc8 <- fc7
I1025 15:37:58.154783 31299 net.cpp:356] fc8 -> fc8
I1025 15:37:58.154799 31299 net.cpp:96] Setting up fc8
I1025 15:37:58.343454 31299 net.cpp:103] Top shape: 100 1000 1 1 (100000)
I1025 15:37:58.343520 31299 net.cpp:67] Creating Layer loss
I1025 15:37:58.343533 31299 net.cpp:394] loss <- fc8
I1025 15:37:58.343549 31299 net.cpp:394] loss <- label
I1025 15:37:58.343562 31299 net.cpp:356] loss -> loss
I1025 15:37:58.343608 31299 net.cpp:96] Setting up loss
I1025 15:37:58.343637 31299 net.cpp:103] Top shape: 1 1 1 1 (1)
I1025 15:37:58.343657 31299 net.cpp:109]     with loss weight 1
I1025 15:37:58.343711 31299 net.cpp:170] loss needs backward computation.
I1025 15:37:58.343722 31299 net.cpp:170] fc8 needs backward computation.
I1025 15:37:58.343741 31299 net.cpp:170] drop7 needs backward computation.
I1025 15:37:58.343751 31299 net.cpp:170] relu7 needs backward computation.
I1025 15:37:58.343761 31299 net.cpp:170] fc7 needs backward computation.
…
I1025 15:37:58.344813 31299 net.cpp:275] The NetState phase (1) differed from the phase (0) specified by a rule in layer data
I1025 15:37:58.345024 31299 net.cpp:39] Initializing net from parameters: 
name: "CaffeNet"
layers {
  top: "data"
  top: "label"
  name: "data"
  type: DATA
  data_param {
    source: "/home/yindazhang/Desktop/caffe/data/noise_negative/val_5_20_20_0_0_lmdb"
    batch_size: 100
    backend: LMDB
  }
  include {
    phase: TEST
  }
  transform_param {
    mirror: false
    crop_size: 227
    mean_file: "/home/yindazhang/Documents/caffe_debug/data/ilsvrc12/imagenet_mean.binaryproto"
  }
}
layers {
  bottom: "data"
  top: "conv1"
  name: "conv1"
  type: CONVOLUTION
  blobs_lr: 1
  blobs_lr: 2
  weight_decay: 1
  weight_decay: 0
  convolution_param {
    num_output: 96
    kernel_size: 11
    stride: 4
    weight_filler {
      type: "gaussian"
      std: 0.01
    }
    bias_filler {
      type: "constant"
      value: 0
    }
  }
}
layers {
  bottom: "conv1"
  top: "conv1"
  name: "relu1"
  type: RELU
}
layers {
  bottom: "conv1"
  top: "pool1"
  name: "pool1"
  type: POOLING
  pooling_param {
    pool: MAX
    kernel_size: 3
    stride: 2
  }
}
layers {
  bottom: "pool1"
  top: "norm1"
  name: "norm1"
  type: LRN
  lrn_param {
    local_size: 5
    alpha: 0.0001
    beta: 0.75
  }
}
layers {
  bottom: "norm1"
  top: "conv2"
  name: "conv2"
  type: CONVOLUTION
  blobs_lr: 1
  blobs_lr: 2
  weight_decay: 1
  weight_decay: 0
  convolution_param {
    num_output: 256
    pad: 2
    kernel_size: 5
    group: 2
    weight_filler {
      type: "gaussian"
      std: 0.01
    }
    bias_filler {
      type: "constant"
      value: 1
    }
  }
}
layers {
  bottom: "conv2"
  top: "conv2"
  name: "relu2"
  type: RELU
}
layers {
  bottom: "conv2"
  top: "pool2"
  name: "pool2"
  type: POOLING
  pooling_param {
    pool: MAX
    kernel_size: 3
    stride: 2
  }
}
layers {
  bottom: "pool2"
  top: "norm2"
  name: "norm2"
  type: LRN
  lrn_param {
    local_size: 5
    alpha: 0.0001
    beta: 0.75
  }
}
layers {
  bottom: "norm2"
  top: "conv3"
  name: "conv3"
  type: CONVOLUTION
  blobs_lr: 1
  blobs_lr: 2
  weight_decay: 1
  weight_decay: 0
  convolution_param {
    num_output: 384
    pad: 1
    kernel_size: 3
    weight_filler {
      type: "gaussian"
      std: 0.01
    }
    bias_filler {
      type: "constant"
      value: 0
    }
  }
}
layers {
  bottom: "conv3"
  top: "conv3"
  name: "relu3"
  type: RELU
}
layers {
  bottom: "conv3"
  top: "conv4"
  name: "conv4"
  type: CONVOLUTION
  blobs_lr: 1
  blobs_lr: 2
  weight_decay: 1
  weight_decay: 0
  convolution_param {
    num_output: 384
    pad: 1
    kernel_size: 3
    group: 2
    weight_filler {
      type: "gaussian"
      std: 0.01
    }
    bias_filler {
      type: "constant"
      value: 1
    }
  }
}
layers {
  bottom: "conv4"
  top: "conv4"
  name: "relu4"
  type: RELU
}
layers {
  bottom: "conv4"
  top: "conv5"
  name: "conv5"
  type: CONVOLUTION
  blobs_lr: 1
  blobs_lr: 2
  weight_decay: 1
  weight_decay: 0
  convolution_param {
    num_output: 256
    pad: 1
    kernel_size: 3
    group: 2
    weight_filler {
      type: "gaussian"
      std: 0.01
    }
    bias_filler {
      type: "constant"
      value: 1
    }
  }
}
layers {
  bottom: "conv5"
  top: "conv5"
  name: "relu5"
  type: RELU
}
layers {
  bottom: "conv5"
  top: "pool5"
  name: "pool5"
  type: POOLING
  pooling_param {
    pool: MAX
    kernel_size: 3
    stride: 2
  }
}
layers {
  bottom: "pool5"
  top: "fc6"
  name: "fc6"
  type: INNER_PRODUCT
  blobs_lr: 1
  blobs_lr: 2
  weight_decay: 1
  weight_decay: 0
  inner_product_param {
    num_output: 4096
    weight_filler {
      type: "gaussian"
      std: 0.005
    }
    bias_filler {
      type: "constant"
      value: 1
    }
  }
}
layers {
  bottom: "fc6"
  top: "fc6"
  name: "relu6"
  type: RELU
}
layers {
  bottom: "fc6"
  top: "fc6"
  name: "drop6"
  type: DROPOUT
  dropout_param {
    dropout_ratio: 0.5
  }
}
layers {
  bottom: "fc6"
  top: "fc7"
  name: "fc7"
  type: INNER_PRODUCT
  blobs_lr: 1
  blobs_lr: 2
  weight_decay: 1
  weight_decay: 0
  inner_product_param {
    num_output: 4096
    weight_filler {
      type: "gaussian"
      std: 0.005
    }
    bias_filler {
      type: "constant"
      value: 1
    }
  }
}
layers {
  bottom: "fc7"
  top: "fc7"
  name: "relu7"
  type: RELU
}
layers {
  bottom: "fc7"
  top: "fc7"
  name: "drop7"
  type: DROPOUT
  dropout_param {
    dropout_ratio: 0.5
  }
}
layers {
  bottom: "fc7"
  top: "fc8"
  name: "fc8"
  type: INNER_PRODUCT
  blobs_lr: 1
  blobs_lr: 2
  weight_decay: 1
  weight_decay: 0
  inner_product_param {
    num_output: 1000
    weight_filler {
      type: "gaussian"
      std: 0.01
    }
    bias_filler {
      type: "constant"
      value: 0
    }
  }
}
layers {
  bottom: "fc8"
  bottom: "label"
  top: "accuracy"
  name: "accuracy"
  type: ACCURACY
  include {
    phase: TEST
  }
}
layers {
  bottom: "fc8"
  bottom: "label"
  top: "loss"
  name: "loss"
  type: SOFTMAX_LOSS
}
state {
  phase: TEST
}
I1025 15:37:58.346369 31299 net.cpp:67] Creating Layer data
I1025 15:37:58.346385 31299 net.cpp:356] data -> data
I1025 15:37:58.346401 31299 net.cpp:356] data -> label
I1025 15:37:58.346415 31299 net.cpp:96] Setting up data
I1025 15:37:58.346489 31299 data_layer.cpp:70] Opening lmdb /home/yindazhang/Desktop/caffe/data/noise_negative/val_5_20_20_0_0_lmdb
I1025 15:37:58.346691 31299 data_layer.cpp:130] output data size: 100,3,227,227
I1025 15:37:58.346707 31299 base_data_layer.cpp:36] Loading mean file from/home/yindazhang/Documents/caffe_debug/data/ilsvrc12/imagenet_mean.binaryproto
I1025 15:37:58.386356 31299 net.cpp:103] Top shape: 100 3 227 227 (15458700)
I1025 15:37:58.386402 31299 net.cpp:103] Top shape: 100 1 1 1 (100)
I1025 15:37:58.386425 31299 net.cpp:67] Creating Layer label_data_1_split
I1025 15:37:58.386437 31299 net.cpp:394] label_data_1_split <- label
I1025 15:37:58.386454 31299 net.cpp:356] label_data_1_split -> label_data_1_split_0
I1025 15:37:58.386472 31299 net.cpp:356] label_data_1_split -> label_data_1_split_1
I1025 15:37:58.386524 31299 net.cpp:96] Setting up label_data_1_split
I1025 15:37:58.386549 31299 net.cpp:103] Top shape: 100 1 1 1 (100)
I1025 15:37:58.386566 31299 net.cpp:103] Top shape: 100 1 1 1 (100)
I1025 15:37:58.386582 31299 net.cpp:67] Creating Layer conv1
I1025 15:37:58.386600 31299 net.cpp:394] conv1 <- data
I1025 15:37:58.386613 31299 net.cpp:356] conv1 -> conv1
I1025 15:37:58.386628 31299 net.cpp:96] Setting up conv1
I1025 15:37:58.388330 31299 net.cpp:103] Top shape: 100 96 55 55 (29040000)
I1025 15:37:58.388378 31299 net.cpp:67] Creating Layer relu1
I1025 15:37:58.388409 31299 net.cpp:394] relu1 <- conv1
I1025 15:37:58.388422 31299 net.cpp:345] relu1 -> conv1 (in-place)
I1025 15:37:58.388443 31299 net.cpp:96] Setting up relu1
I1025 15:37:58.388463 31299 net.cpp:103] Top shape: 100 96 55 55 (29040000)
I1025 15:37:58.388478 31299 net.cpp:67] Creating Layer pool1
I1025 15:37:58.388495 31299 net.cpp:394] pool1 <- conv1
I1025 15:37:58.388514 31299 net.cpp:356] pool1 -> pool1
I1025 15:37:58.388530 31299 net.cpp:96] Setting up pool1
I1025 15:37:58.388546 31299 net.cpp:103] Top shape: 100 96 27 27 (6998400)
I1025 15:37:58.388563 31299 net.cpp:67] Creating Layer norm1
I1025 15:37:58.388573 31299 net.cpp:394] norm1 <- pool1
I1025 15:37:58.388587 31299 net.cpp:356] norm1 -> norm1
I1025 15:37:58.388599 31299 net.cpp:96] Setting up norm1
I1025 15:37:58.388614 31299 net.cpp:103] Top shape: 100 96 27 27 (6998400)
I1025 15:37:58.388629 31299 net.cpp:67] Creating Layer conv2
I1025 15:37:58.388643 31299 net.cpp:394] conv2 <- norm1
I1025 15:37:58.388655 31299 net.cpp:356] conv2 -> conv2
I1025 15:37:58.388669 31299 net.cpp:96] Setting up conv2
I1025 15:37:58.402850 31299 net.cpp:103] Top shape: 100 256 27 27 (18662400)
I1025 15:37:58.402938 31299 net.cpp:67] Creating Layer relu2
I1025 15:37:58.402952 31299 net.cpp:394] relu2 <- conv2
I1025 15:37:58.402978 31299 net.cpp:345] relu2 -> conv2 (in-place)
I1025 15:37:58.403002 31299 net.cpp:96] Setting up relu2
I1025 15:37:58.403023 31299 net.cpp:103] Top shape: 100 256 27 27 (18662400)
I1025 15:37:58.403041 31299 net.cpp:67] Creating Layer pool2
I1025 15:37:58.403058 31299 net.cpp:394] pool2 <- conv2
I1025 15:37:58.403079 31299 net.cpp:356] pool2 -> pool2
I1025 15:37:58.403096 31299 net.cpp:96] Setting up pool2
I1025 15:37:58.403116 31299 net.cpp:103] Top shape: 100 256 13 13 (4326400)
I1025 15:37:58.403131 31299 net.cpp:67] Creating Layer norm2
I1025 15:37:58.403141 31299 net.cpp:394] norm2 <- pool2
I1025 15:37:58.403157 31299 net.cpp:356] norm2 -> norm2
I1025 15:37:58.403172 31299 net.cpp:96] Setting up norm2
I1025 15:37:58.403185 31299 net.cpp:103] Top shape: 100 256 13 13 (4326400)
I1025 15:37:58.403201 31299 net.cpp:67] Creating Layer conv3
I1025 15:37:58.403239 31299 net.cpp:394] conv3 <- norm2
I1025 15:37:58.403256 31299 net.cpp:356] conv3 -> conv3
I1025 15:37:58.403271 31299 net.cpp:96] Setting up conv3
I1025 15:37:58.444342 31299 net.cpp:103] Top shape: 100 384 13 13 (6489600)
I1025 15:37:58.444416 31299 net.cpp:67] Creating Layer relu3
I1025 15:37:58.444452 31299 net.cpp:394] relu3 <- conv3
I1025 15:37:58.444468 31299 net.cpp:345] relu3 -> conv3 (in-place)
I1025 15:37:58.444485 31299 net.cpp:96] Setting up relu3
I1025 15:37:58.444500 31299 net.cpp:103] Top shape: 100 384 13 13 (6489600)
I1025 15:37:58.444522 31299 net.cpp:67] Creating Layer conv4
I1025 15:37:58.444540 31299 net.cpp:394] conv4 <- conv3
I1025 15:37:58.444558 31299 net.cpp:356] conv4 -> conv4
I1025 15:37:58.444579 31299 net.cpp:96] Setting up conv4
I1025 15:37:58.476665 31299 net.cpp:103] Top shape: 100 384 13 13 (6489600)
I1025 15:37:58.476734 31299 net.cpp:67] Creating Layer relu4
I1025 15:37:58.476748 31299 net.cpp:394] relu4 <- conv4
I1025 15:37:58.476764 31299 net.cpp:345] relu4 -> conv4 (in-place)
I1025 15:37:58.476780 31299 net.cpp:96] Setting up relu4
I1025 15:37:58.476796 31299 net.cpp:103] Top shape: 100 384 13 13 (6489600)
I1025 15:37:58.476814 31299 net.cpp:67] Creating Layer conv5
I1025 15:37:58.476847 31299 net.cpp:394] conv5 <- conv4
I1025 15:37:58.476861 31299 net.cpp:356] conv5 -> conv5
I1025 15:37:58.476876 31299 net.cpp:96] Setting up conv5
I1025 15:37:58.497498 31299 net.cpp:103] Top shape: 100 256 13 13 (4326400)
I1025 15:37:58.497567 31299 net.cpp:67] Creating Layer relu5
I1025 15:37:58.497638 31299 net.cpp:394] relu5 <- conv5
I1025 15:37:58.497656 31299 net.cpp:345] relu5 -> conv5 (in-place)
I1025 15:37:58.497689 31299 net.cpp:96] Setting up relu5
I1025 15:37:58.497704 31299 net.cpp:103] Top shape: 100 256 13 13 (4326400)
I1025 15:37:58.497722 31299 net.cpp:67] Creating Layer pool5
I1025 15:37:58.497745 31299 net.cpp:394] pool5 <- conv5
I1025 15:37:58.497771 31299 net.cpp:356] pool5 -> pool5
I1025 15:37:58.497797 31299 net.cpp:96] Setting up pool5
I1025 15:37:58.497818 31299 net.cpp:103] Top shape: 100 256 6 6 (921600)
I1025 15:37:58.497833 31299 net.cpp:67] Creating Layer fc6
I1025 15:37:58.497848 31299 net.cpp:394] fc6 <- pool5
I1025 15:37:58.497869 31299 net.cpp:356] fc6 -> fc6
I1025 15:37:58.497889 31299 net.cpp:96] Setting up fc6
I1025 15:38:00.247582 31299 net.cpp:103] Top shape: 100 4096 1 1 (409600)
I1025 15:38:00.247666 31299 net.cpp:67] Creating Layer relu6
I1025 15:38:00.247680 31299 net.cpp:394] relu6 <- fc6
I1025 15:38:00.247696 31299 net.cpp:345] relu6 -> fc6 (in-place)
I1025 15:38:00.247712 31299 net.cpp:96] Setting up relu6
I1025 15:38:00.247740 31299 net.cpp:103] Top shape: 100 4096 1 1 (409600)
I1025 15:38:00.247800 31299 net.cpp:67] Creating Layer drop6
I1025 15:38:00.247817 31299 net.cpp:394] drop6 <- fc6
I1025 15:38:00.247829 31299 net.cpp:345] drop6 -> fc6 (in-place)
I1025 15:38:00.247844 31299 net.cpp:96] Setting up drop6
I1025 15:38:00.247855 31299 net.cpp:103] Top shape: 100 4096 1 1 (409600)
I1025 15:38:00.247871 31299 net.cpp:67] Creating Layer fc7
I1025 15:38:00.247882 31299 net.cpp:394] fc7 <- fc6
I1025 15:38:00.247896 31299 net.cpp:356] fc7 -> fc7
I1025 15:38:00.247912 31299 net.cpp:96] Setting up fc7
I1025 15:38:01.025461 31299 net.cpp:103] Top shape: 100 4096 1 1 (409600)
I1025 15:38:01.025523 31299 net.cpp:67] Creating Layer relu7
I1025 15:38:01.025537 31299 net.cpp:394] relu7 <- fc7
I1025 15:38:01.025579 31299 net.cpp:345] relu7 -> fc7 (in-place)
I1025 15:38:01.025595 31299 net.cpp:96] Setting up relu7
I1025 15:38:01.025631 31299 net.cpp:103] Top shape: 100 4096 1 1 (409600)
I1025 15:38:01.025650 31299 net.cpp:67] Creating Layer drop7
I1025 15:38:01.025668 31299 net.cpp:394] drop7 <- fc7
I1025 15:38:01.025687 31299 net.cpp:345] drop7 -> fc7 (in-place)
I1025 15:38:01.025701 31299 net.cpp:96] Setting up drop7
I1025 15:38:01.025714 31299 net.cpp:103] Top shape: 100 4096 1 1 (409600)
I1025 15:38:01.025729 31299 net.cpp:67] Creating Layer fc8
I1025 15:38:01.025740 31299 net.cpp:394] fc8 <- fc7
I1025 15:38:01.025758 31299 net.cpp:356] fc8 -> fc8
I1025 15:38:01.025812 31299 net.cpp:96] Setting up fc8
I1025 15:38:01.216449 31299 net.cpp:103] Top shape: 100 1000 1 1 (100000)
I1025 15:38:01.216508 31299 net.cpp:67] Creating Layer fc8_fc8_0_split
I1025 15:38:01.216521 31299 net.cpp:394] fc8_fc8_0_split <- fc8
I1025 15:38:01.216538 31299 net.cpp:356] fc8_fc8_0_split -> fc8_fc8_0_split_0
I1025 15:38:01.216555 31299 net.cpp:356] fc8_fc8_0_split -> fc8_fc8_0_split_1
I1025 15:38:01.216572 31299 net.cpp:96] Setting up fc8_fc8_0_split
I1025 15:38:01.216586 31299 net.cpp:103] Top shape: 100 1000 1 1 (100000)
I1025 15:38:01.216598 31299 net.cpp:103] Top shape: 100 1000 1 1 (100000)
I1025 15:38:01.216619 31299 net.cpp:67] Creating Layer accuracy
I1025 15:38:01.216631 31299 net.cpp:394] accuracy <- fc8_fc8_0_split_0
I1025 15:38:01.216646 31299 net.cpp:394] accuracy <- label_data_1_split_0
I1025 15:38:01.216661 31299 net.cpp:356] accuracy -> accuracy
I1025 15:38:01.216676 31299 net.cpp:96] Setting up accuracy
I1025 15:38:01.216692 31299 net.cpp:103] Top shape: 1 1 1 1 (1)
I1025 15:38:01.216711 31299 net.cpp:67] Creating Layer loss
I1025 15:38:01.216720 31299 net.cpp:394] loss <- fc8_fc8_0_split_1
I1025 15:38:01.216734 31299 net.cpp:394] loss <- label_data_1_split_1
I1025 15:38:01.216748 31299 net.cpp:356] loss -> loss
I1025 15:38:01.216763 31299 net.cpp:96] Setting up loss
I1025 15:38:01.216792 31299 net.cpp:103] Top shape: 1 1 1 1 (1)
I1025 15:38:01.216809 31299 net.cpp:109]     with loss weight 1
I1025 15:38:01.216833 31299 net.cpp:170] loss needs backward computation.
I1025 15:38:01.216848 31299 net.cpp:172] accuracy does not need backward computation.
I1025 15:38:01.216861 31299 net.cpp:170] fc8_fc8_0_split needs backward computation.
I1025 15:38:01.216874 31299 net.cpp:170] fc8 needs backward computation.
I1025 15:38:01.216884 31299 net.cpp:170] drop7 needs backward computation.
…
